…
      sampler {
        min_scale: 0.3
        max_scale: 1
        min_aspect_ratio: 0.5
        max_aspect_ratio: 2
      }
      sample_constraint {
        min_jaccard_overlap: 0.9
      }
      max_sample: 1
      max_trials: 50
    }
    batch_sampler {
      sampler {
        min_scale: 0.3
        max_scale: 1
        min_aspect_ratio: 0.5
        max_aspect_ratio: 2
      }
      sample_constraint {
        max_jaccard_overlap: 1
      }
      max_sample: 1
      max_trials: 50
    }
    label_map_file: "data/actions/labelmap_voc.prototxt"
  }
}
layer {
  name: "conv1_1"
  type: "Convolution"
  bottom: "data"
  top: "conv1_1"
  param {
    lr_mult: 1
    decay_mult: 1
  }
  param {
    lr_mult: 2
    decay_mult: 0
  }
  convolution_param {
    num_output: 64
    pad: 1
    kernel_size: 3
    weight_filler {
      type: "xavier"
    }
    bias_filler {
      type: "constant"
      value: 0
    }
  }
}
layer {
  name: "relu1_1"
  type: "ReLU"
  bottom: "conv1_1"
  top: "conv1_1"
}
layer {
  name: "conv1_2"
  type: "Convolution"
  bottom: "conv1_1"
  top: "conv1_2"
  param {
    lr_mult: 1
    decay_mult: 1
  }
  param {
    lr_mult: 2
    decay_mult: 0
  }
  convolution_param {
    num_output: 64
    pad: 1
    kernel_size: 3
    weight_filler {
      type: "xavier"
    }
    bias_filler {
      type: "constant"
      value: 0
    }
  }
}
layer {
  name: "relu1_2"
  type: "ReLU"
  bottom: "conv1_2"
  top: "conv1_2"
}
layer {
  name: "pool1"
  type: "Pooling"
  bottom: "conv1_2"
  top: "pool1"
  pooling_param {
    pool: MAX
    kernel_size: 2
    stride: 2
  }
}
layer {
  name: "conv2_1"
  type: "Convolution"
  bottom: "pool1"
  top: "conv2_1"
  param {
    lr_mult: 1
    decay_mult: 1
  }
  param {
    lr_mult: 2
    decay_mult: 0
  }
  convolution_param {
    num_output: 128
    pad: 1
    kernel_size: 3
    weight_filler {
      type: "xavier"
    }
    bias_filler {
      type: "constant"
      value: 0
    }
  }
}
layer {
  name: "relu2_1"
  type: "ReLU"
  bottom: "conv2_1"
  top: "conv2_1"
}
layer {
  name: "conv2_2"
  type: "Convolution"
  bottom: "conv2_1"
  top: "conv2_2"
  param {
    lr_mult: 1
    decay_mult: 1
  }
  param {
    lr_mult: 2
    decay_mult: 0
  }
  convolution_param {
    num_output: 128
    pad: 1
    kernel_size: 3
    weight_filler {
      type: "xavier"
    }
    bias_filler {
      type: "constant"
      value: 0
    }
  }
}
layer {
  name: "relu2_2"
  type: "ReLU"
  bottom: "conv2_2"
  top: "conv2_2"
}
layer {
  name: "pool2"
  type: "Pooling"
  bottom: "conv2_2"
  top: "pool2"
  pooling_param {
    pool: MAX
    kernel_size: 2
    stride: 2
  }
}
layer {
  name: "conv3_1"
  type: "Convolution"
  bottom: "pool2"
  top: "conv3_1"
  param {
    lr_mult: 1
    decay_mult: 1
  }
  param {
    lr_mult: 2
    decay_mult: 0
  }
  convolution_param {
    num_output: 256
    pad: 1
    kernel_size: 3
    weight_filler {
      type: "xavier"
    }
    bias_filler {
      type: "constant"
      value: 0
    }
  }
}
layer {
  name: "relu3_1"
  type: "ReLU"
  bottom: "conv3_1"
  top: "conv3_1"
}
layer {
  name: "conv3_2"
  type: "Convolution"
  bottom: "conv3_1"
  top: "conv3_2"
  param {
    lr_mult: 1
    decay_mult: 1
  }
  param {
    lr_mult: 2
    decay_mult: 0
  }
  convolution_param {
    num_output: 256
    pad: 1
    kernel_size: 3
    weight_filler {
      type: "xavier"
    }
    bias_filler {
      type: "constant"
      value: 0
    }
  }
}
layer {
  name: "relu3_2"
  type: "ReLU"
  bottom: "conv3_2"
  top: "conv3_2"
}
layer {
  name: "conv3_3"
  type: "Convolution"
  bottom: "conv3_2"
  top: "conv3_3"
  param {
    lr_mult: 1
    decay_mult: 1
  }
  param {
    lr_mult: 2
    decay_mult: 0
  }
  convolution_param {
    num_output: 256
    pad: 1
    kernel_size: 3
    weight_filler {
      type: "xavier"
    }
    bias_filler {
      type: "constant"
      value: 0
    }
  }
}
layer {
  name: "relu3_3"
  type: "ReLU"
  bottom: "conv3_3"
  top: "conv3_3"
}
layer {
  name: "pool3"
  type: "Pooling"
  bottom: "conv3_3"
  top: "pool3"
  pooling_param {
    pool: MAX
    kernel_size: 2
    stride: 2
  }
}
layer {
  name: "conv4_1"
  type: "Convolution"
  bottom: "pool3"
  top: "conv4_1"
  param {
    lr_mult: 1
    decay_mult: 1
  }
  param {
    lr_mult: 2
    decay_mult: 0
  }
  convolution_param {
    num_output: 512
    pad: 1
    kernel_size: 3
    weight_filler {
      type: "xavier"
    }
    bias_filler {
      type: "constant"
      value: 0
    }
  }
}
layer {
  name: "relu4_1"
  type: "ReLU"
  bottom: "conv4_1"
  top: "conv4_1"
}
layer {
  name: "conv4_2"
  type: "Convolution"
  bottom: "conv4_1"
  top: "conv4_2"
  param {
    lr_mult: 1
    decay_mult: 1
  }
  param {
    lr_mult: 2
    decay_mult: 0
  }
  convolution_param {
    num_output: 512
    pad: 1
    kernel_size: 3
    weight_filler {
      type: "xavier"
    }
    bias_filler {
      type: "constant"
      value: 0
    }
  }
}
layer {
  name: "relu4_2"
  type: "ReLU"
  bottom: "conv4_2"
  top: "conv4_2"
}
layer {
  name: "conv4_3"
  type: "Convolution"
  bottom: "conv4_2"
  top: "conv4_3"
  param {
    lr_mult: 1
    decay_mult: 1
  }
  param {
    lr_mult: 2
    decay_mult: 0
  }
  convolution_param {
    num_output: 512
    pad: 1
    kernel_size: 3
    weight_filler {
      type: "xavier"
    }
    bias_filler {
      type: "constant"
      value: 0
    }
  }
}
layer {
  name: "relu4_3"
  type: "ReLU"
  bottom: "conv4_3"
  top: "conv4_3"
}
layer {
  name: "pool4"
  type: "Pooling"
  bottom: "conv4_3"
  top: "pool4"
  pooling_param {
    pool: MAX
    kernel_size: 2
    stride: 2
  }
}
layer {
  name: "conv5_1"
  type: "Convolution"
  bottom: "pool4"
  top: "conv5_1"
  param {
    lr_mult: 1
    decay_mult: 1
  }
  param {
    lr_mult: 2
    decay_mult: 0
  }
  convolution_param {
    num_output: 512
    pad: 1
    kernel_size: 3
    weight_filler {
      type: "xavier"
    }
    bias_filler {
      type: "constant"
      value: 0
    }
    dilation: 1
  }
}
layer {
  name: "relu5_1"
  type: "ReLU"
  bottom: "conv5_1"
  top: "conv5_1"
}
layer {
  name: "conv5_2"
  type: "Convolution"
  bottom: "conv5_1"
  top: "conv5_2"
  param {
    lr_mult: 1
    decay_mult: 1
  }
  param {
    lr_mult: 2
    decay_mult: 0
  }
  convolution_param {
    num_output: 512
    pad: 1
    kernel_size: 3
    weight_filler {
      type: "xavier"
    }
    bias_filler {
      type: "constant"
      value: 0
    }
    dilation: 1
  }
}
layer {
  name: "relu5_2"
  type: "ReLU"
  bottom: "conv5_2"
  top: "conv5_2"
}
layer {
  name: "conv5_3"
  type: "Convolution"
  bottom: "conv5_2"
  top: "conv5_3"
  param {
    lr_mult: 1
    decay_mult: 1
  }
  param {
    lr_mult: 2
    decay_mult: 0
  }
  convolution_param {
    num_output: 512
    pad: 1
    kernel_size: 3
    weight_filler {
      type: "xavier"
    }
    bias_filler {
      type: "constant"
      value: 0
    }
    dilation: 1
  }
}
layer {
  name: "relu5_3"
  type: "ReLU"
  bottom: "conv5_3"
  top: "conv5_3"
}
layer {
  name: "pool5"
  type: "Pooling"
  bottom: "conv5_3"
  top: "pool5"
  pooling_param {
    pool: MAX
    kernel_size: 3
    stride: 1
    pad: 1
  }
}
layer {
  name: "fc6"
  type: "Convolution"
  bottom: "pool5"
  top: "fc6"
  param {
    lr_mult: 1
    decay_mult: 1
  }
  param {
    lr_mult: 2
    decay_mult: 0
  }
  convolution_param {
    num_output: 1024
    pad: 6
    kernel_size: 3
    weight_filler {
      type: "xavier"
    }
    bias_filler {
      type: "constant"
      value: 0
    }
    dilation: 6
  }
}
layer {
  name: "relu6"
  type: "ReLU"
  bottom: "fc6"
  top: "fc6"
}
layer {
  name: "fc7"
  type: "Convolution"
  bottom: "fc6"
  top: "fc7"
  param {
    lr_mult: 1
    decay_mult: 1
  }
  param {
    lr_mult: 2
    decay_mult: 0
  }
  convolution_param {
    num_output: 1024
    kernel_size: 1
    weight_filler {
      type: "xavier"
    }
    bias_filler {
      type: "constant"
      value: 0
    }
  }
}
layer {
  name: "relu7"
  type: "ReLU"
  bottom: "fc7"
  top: "fc7"
}
layer {
  name: "conv6_1"
  type: "Convolution"
  bottom: "fc7"
  top: "conv6_1"
  param {
    lr_mult: 1
    decay_mult: 1
  }
  param {
    lr_mult: 2
    decay_mult: 0
  }
  convolution_param {
    num_output: 256
    pad: 0
    kernel_size: 1
    stride: 1
    weight_filler {
      type: "xavier"
    }
    bias_filler {
      type: "constant"
      value: 0
    }
  }
}
layer {
  name: "conv6_1_relu"
  type: "ReLU"
  bottom: "conv6_1"
  top: "conv6_1"
}
layer {
  name: "conv6_2"
  type: "Convolution"
  bottom: "conv6_1"
  top: "conv6_2"
  param {
    lr_mult: 1
    decay_mult: 1
  }
  param {
    lr_mult: 2
    decay_mult: 0
  }
  convolution_param {
    num_output: 512
    pad: 1
    kernel_size: 3
    stride: 2
    weight_filler {
      type: "xavier"
    }
    bias_filler {
      type: "constant"
      value: 0
    }
  }
}
layer {
  name: "conv6_2_relu"
  type: "ReLU"
  bottom: "conv6_2"
  top: "conv6_2"
}
layer {
  name: "conv7_1"
  type: "Convolution"
  bottom: "conv6_2"
  top: "conv7_1"
  param {
    lr_mult: 1
    decay_mult: 1
  }
  param {
    lr_mult: 2
    decay_mult: 0
  }
  convolution_param {
    num_output: 128
    pad: 0
    kernel_size: 1
    stride: 1
    weight_filler {
      type: "xavier"
    }
    bias_filler {
      type: "constant"
      value: 0
    }
  }
}
layer {
  name: "conv7_1_relu"
  type: "ReLU"
  bottom: "conv7_1"
  top: "conv7_1"
}
layer {
  name: "conv7_2"
  type: "Convolution"
  bottom: "conv7_1"
  top: "conv7_2"
  param {
    lr_mult: 1
    decay_mult: 1
  }
  param {
    lr_mult: 2
    decay_mult: 0
  }
  convolution_param {
    num_output: 256
    pad: 1
    kernel_size: 3
    stride: 2
    weight_filler {
      type: "xavier"
    }
    bias_filler {
      type: "constant"
      value: 0
    }
  }
}
layer {
  name: "conv7_2_relu"
  type: "ReLU"
  bottom: "conv7_2"
  top: "conv7_2"
}
layer {
  name: "conv8_1"
  type: "Convolution"
  bottom: "conv7_2"
  top: "conv8_1"
  param {
    lr_mult: 1
    decay_mult: 1
  }
  param {
    lr_mult: 2
    decay_mult: 0
  }
  convolution_param {
    num_output: 128
    pad: 0
    kernel_size: 1
    stride: 1
    weight_filler {
      type: "xavier"
    }
    bias_filler {
      type: "constant"
      value: 0
    }
  }
}
layer {
  name: "conv8_1_relu"
  type: "ReLU"
  bottom: "conv8_1"
  top: "conv8_1"
}
layer {
  name: "conv8_2"
  type: "Convolution"
  bottom: "conv8_1"
  top: "conv8_2"
  param {
    lr_mult: 1
    decay_mult: 1
  }
  param {
    lr_mult: 2
    decay_mult: 0
  }
  convolution_param {
    num_output: 256
    pad: 1
    kernel_size: 3
    stride: 2
    weight_filler {
      type: "xavier"
    }
    bias_filler {
      type: "constant"
      value: 0
    }
  }
}
layer {
  name: "conv8_2_relu"
  type: "ReLU"
  bottom: "conv8_2"
  top: "conv8_2"
}
layer {
  name: "conv9_1"
  type: "Convolution"
  bottom: "conv8_2"
  top: "conv9_1"
  param {
    lr_mult: 1
    decay_mult: 1
  }
  param {
    lr_mult: 2
    decay_mult: 0
  }
  convolution_param {
    num_output: 128
    pad: 0
    kernel_size: 1
    stride: 1
    weight_filler {
      type: "xavier"
    }
    bias_filler {
      type: "constant"
      value: 0
    }
  }
}
layer {
  name: "conv9_1_relu"
  type: "ReLU"
  bottom: "conv9_1"
  top: "conv9_1"
}
layer {
  name: "conv9_2"
  type: "Convolution"
  bottom: "conv9_1"
  top: "conv9_2"
  param {
    lr_mult: 1
    decay_mult: 1
  }
  param {
    lr_mult: 2
    decay_mult: 0
  }
  convolution_param {
    num_output: 256
    pad: 1
    kernel_size: 3
    stride: 2
    weight_filler {
      type: "xavier"
    }
    bias_filler {
      type: "constant"
      value: 0
    }
  }
}
layer {
  name: "conv9_2_relu"
  type: "ReLU"
  bottom: "conv9_2"
  top: "conv9_2"
}
layer {
  name: "conv10_1"
  type: "Convolution"
  bottom: "conv9_2"
  top: "conv10_1"
  param {
    lr_mult: 1
    decay_mult: 1
  }
  param {
    lr_mult: 2
    decay_mult: 0
  }
  convolution_param {
    num_output: 128
    pad: 0
    kernel_size: 1
    stride: 1
    weight_filler {
      type: "xavier"
    }
    bias_filler {
      type: "constant"
      value: 0
    }
  }
}
layer {
  name: "conv10_1_relu"
  type: "ReLU"
  bottom: "conv10_1"
  top: "conv10_1"
}
layer {
  name: "conv10_2"
  type: "Convolution"
  bottom: "conv10_1"
  top: "conv10_2"
  param {
    lr_mult: 1
    decay_mult: 1
  }
  param {
    lr_mult: 2
    decay_mult: 0
  }
  convolution_param {
    num_output: 256
    pad: 1
    kernel_size: 4
    stride: 1
    weight_filler {
      type: "xavier"
    }
    bias_filler {
      type: "constant"
      value: 0
    }
  }
}
layer {
  name: "conv10_2_relu"
  type: "ReLU"
  bottom: "conv10_2"
  top: "conv10_2"
}
layer {
  name: "conv4_3_norm"
  type: "Normalize"
  bottom: "conv4_3"
  top: "conv4_3_norm"
  norm_param {
    across_spatial: false
    scale_filler {
      type: "constant"
      value: 20
    }
    channel_shared: false
  }
}
layer {
  name: "conv4_3_norm_mbox_loc"
  type: "Convolution"
  bottom: "conv4_3_norm"
  top: "conv4_3_norm_mbox_loc"
  param {
    lr_mult: 1
    decay_mult: 1
  }
  param {
    lr_mult: 2
    decay_mult: 0
  }
  convolution_param {
    num_output: 16
    pad: 1
    kernel_size: 3
    stride: 1
    weight_filler {
      type: "xavier"
    }
    bias_filler {
      type: "constant"
      value: 0
    }
  }
}
layer {
  name: "conv4_3_norm_mbox_loc_perm"
  type: "Permute"
  bottom: "conv4_3_norm_mbox_loc"
  top: "conv4_3_norm_mbox_loc_perm"
  permute_param {
    order: 0
    order: 2
    order: 3
    order: 1
  }
}
layer {
  name: "conv4_3_norm_mbox_loc_flat"
  type: "Flatten"
  bottom: "conv4_3_norm_mbox_loc_perm"
  top: "conv4_3_norm_mbox_loc_flat"
  flatten_param {
    axis: 1
  }
}
layer {
  name: "conv4_3_norm_mbox_conf"
  type: "Convolution"
  bottom: "conv4_3_norm"
  top: "conv4_3_norm_mbox_conf"
  param {
    lr_mult: 1
    decay_mult: 1
  }
  param {
    lr_mult: 2
    decay_mult: 0
  }
  convolution_param {
    num_output: 20
    pad: 1
    kernel_size: 3
    stride: 1
    weight_filler {
      type: "xavier"
    }
    bias_filler {
      type: "constant"
      value: 0
    }
  }
}
layer {
  name: "conv4_3_norm_mbox_conf_perm"
  type: "Permute"
  bottom: "conv4_3_norm_mbox_conf"
  top: "conv4_3_norm_mbox_conf_perm"
  permute_param {
    order: 0
    order: 2
    order: 3
    order: 1
  }
}
layer {
  name: "conv4_3_norm_mbox_conf_flat"
  type: "Flatten"
  bottom: "conv4_3_norm_mbox_conf_perm"
  top: "conv4_3_norm_mbox_conf_flat"
  flatten_param {
    axis: 1
  }
}
layer {
  name: "conv4_3_norm_mbox_priorbox"
  type: "PriorBox"
  bottom: "conv4_3_norm"
  bottom: "data"
  top: "conv4_3_norm_mbox_priorbox"
  prior_box_param {
    min_size: 35.84
    max_size: 76.8
    aspect_ratio: 2
    flip: true
    clip: false
    variance: 0.1
    variance: 0.1
    variance: 0.2
    variance: 0.2
    step: 8
    offset: 0.5
  }
}
layer {
  name: "fc7_mbox_loc"
  type: "Convolution"
  bottom: "fc7"
  top: "fc7_mbox_loc"
  param {
    lr_mult: 1
    decay_mult: 1
  }
  param {
    lr_mult: 2
    decay_mult: 0
  }
  convolution_param {
    num_output: 24
    pad: 1
    kernel_size: 3
    stride: 1
    weight_filler {
      type: "xavier"
    }
    bias_filler {
      type: "constant"
      value: 0
    }
  }
}
layer {
  name: "fc7_mbox_loc_perm"
  type: "Permute"
  bottom: "fc7_mbox_loc"
  top: "fc7_mbox_loc_perm"
  permute_param {
    order: 0
    order: 2
    order: 3
    order: 1
  }
}
layer {
  name: "fc7_mbox_loc_flat"
  type: "Flatten"
  bottom: "fc7_mbox_loc_perm"
  top: "fc7_mbox_loc_flat"
  flatten_param {
    axis: 1
  }
}
layer {
  name: "fc7_mbox_conf"
  type: "Convolution"
  bottom: "fc7"
  top: "fc7_mbox_conf"
  param {
    lr_mult: 1
    decay_mult: 1
  }
  param {
    lr_mult: 2
    decay_mult: 0
  }
  convolution_param {
    num_output: 30
    pad: 1
    kernel_size: 3
    stride: 1
    weight_filler {
      type: "xavier"
    }
    bias_filler {
      type: "constant"
      value: 0
    }
  }
}
layer {
  name: "fc7_mbox_conf_perm"
  type: "Permute"
  bottom: "fc7_mbox_conf"
  top: "fc7_mbox_conf_perm"
  permute_param {
    order: 0
    order: 2
    order: 3
    order: 1
  }
}
layer {
  name: "fc7_mbox_conf_flat"
  type: "Flatten"
  bottom: "fc7_mbox_conf_perm"
  top: "fc7_mbox_conf_flat"
  flatten_param {
    axis: 1
  }
}
layer {
  name: "fc7_mbox_priorbox"
  type: "PriorBox"
  bottom: "fc7"
  bottom: "data"
  top: "fc7_mbox_priorbox"
  prior_box_param {
    min_size: 76.8
    max_size: 153.6
    aspect_ratio: 2
    aspect_ratio: 3
    flip: true
    clip: false
    variance: 0.1
    variance: 0.1
    variance: 0.2
    variance: 0.2
    step: 16
    offset: 0.5
  }
}
layer {
  name: "conv6_2_mbox_loc"
  type: "Convolution"
  bottom: "conv6_2"
  top: "conv6_2_mbox_loc"
  param {
    lr_mult: 1
    decay_mult: 1
  }
  param {
    lr_mult: 2
    decay_mult: 0
  }
  convolution_param {
    num_output: 24
    pad: 1
    kernel_size: 3
    stride: 1
    weight_filler {
      type: "xavier"
    }
    bias_filler {
      type: "constant"
      value: 0
    }
  }
}
layer {
  name: "conv6_2_mbox_loc_perm"
  type: "Permute"
  bottom: "conv6_2_mbox_loc"
  top: "conv6_2_mbox_loc_perm"
  permute_param {
    order: 0
    order: 2
    order: 3
    order: 1
  }
}
layer {
  name: "conv6_2_mbox_loc_flat"
  type: "Flatten"
  bottom: "conv6_2_mbox_loc_perm"
  top: "conv6_2_mbox_loc_flat"
  flatten_param {
    axis: 1
  }
}
layer {
  name: "conv6_2_mbox_conf"
  type: "Convolution"
  bottom: "conv6_2"
  top: "conv6_2_mbox_conf"
  param {
    lr_mult: 1
    decay_mult: 1
  }
  param {
    lr_mult: 2
    decay_mult: 0
  }
  convolution_param {
    num_output: 30
    pad: 1
    kernel_size: 3
    stride: 1
    weight_filler {
      type: "xavier"
    }
    bias_filler {
      type: "constant"
      value: 0
    }
  }
}
layer {
  name: "conv6_2_mbox_conf_perm"
  type: "Permute"
  bottom: "conv6_2_mbox_conf"
  top: "conv6_2_mbox_conf_perm"
  permute_param {
    order: 0
    order: 2
    order: 3
    order: 1
  }
}
layer {
  name: "conv6_2_mbox_conf_flat"
  type: "Flatten"
  bottom: "conv6_2_mbox_conf_perm"
  top: "conv6_2_mbox_conf_flat"
  flatten_param {
    axis: 1
  }
}
layer {
  name: "conv6_2_mbox_priorbox"
  type: "PriorBox"
  bottom: "conv6_2"
  bottom: "data"
  top: "conv6_2_mbox_priorbox"
  prior_box_param {
    min_size: 153.6
    max_size: 230.4
    aspect_ratio: 2
    aspect_ratio: 3
    flip: true
    clip: false
    variance: 0.1
    variance: 0.1
    variance: 0.2
    variance: 0.2
    step: 32
    offset: 0.5
  }
}
layer {
  name: "conv7_2_mbox_loc"
  type: "Convolution"
  bottom: "conv7_2"
  top: "conv7_2_mbox_loc"
  param {
    lr_mult: 1
    decay_mult: 1
  }
  param {
    lr_mult: 2
    decay_mult: 0
  }
  convolution_param {
    num_output: 24
    pad: 1
    kernel_size: 3
    stride: 1
    weight_filler {
      type: "xavier"
    }
    bias_filler {
      type: "constant"
      value: 0
    }
  }
}
layer {
  name: "conv7_2_mbox_loc_perm"
  type: "Permute"
  bottom: "conv7_2_mbox_loc"
  top: "conv7_2_mbox_loc_perm"
  permute_param {
    order: 0
    order: 2
    order: 3
    order: 1
  }
}
layer {
  name: "conv7_2_mbox_loc_flat"
  type: "Flatten"
  bottom: "conv7_2_mbox_loc_perm"
  top: "conv7_2_mbox_loc_flat"
  flatten_param {
    axis: 1
  }
}
layer {
  name: "conv7_2_mbox_conf"
  type: "Convolution"
  bottom: "conv7_2"
  top: "conv7_2_mbox_conf"
  param {
    lr_mult: 1
    decay_mult: 1
  }
  param {
    lr_mult: 2
    decay_mult: 0
  }
  convolution_param {
    num_output: 30
    pad: 1
    kernel_size: 3
    stride: 1
    weight_filler {
      type: "xavier"
    }
    bias_filler {
      type: "constant"
      value: 0
    }
  }
}
layer {
  name: "conv7_2_mbox_conf_perm"
  type: "Permute"
  bottom: "conv7_2_mbox_conf"
  top: "conv7_2_mbox_conf_perm"
  permute_param {
    order: 0
    order: 2
    order: 3
    order: 1
  }
}
layer {
  name: "conv7_2_mbox_conf_flat"
  type: "Flatten"
  bottom: "conv7_2_mbox_conf_perm"
  top: "conv7_2_mbox_conf_flat"
  flatten_param {
    axis: 1
  }
}
layer {
  name: "conv7_2_mbox_priorbox"
  type: "PriorBox"
  bottom: "conv7_2"
  bottom: "data"
  top: "conv7_2_mbox_priorbox"
  prior_box_param {
    min_size: 230.4
    max_size: 307.2
    aspect_ratio: 2
    aspect_ratio: 3
    flip: true
    clip: false
    variance: 0.1
    variance: 0.1
    variance: 0.2
    variance: 0.2
    step: 64
    offset: 0.5
  }
}
layer {
  name: "conv8_2_mbox_loc"
  type: "Convolution"
  bottom: "conv8_2"
  top: "conv8_2_mbox_loc"
  param {
    lr_mult: 1
    decay_mult: 1
  }
  param {
    lr_mult: 2
    decay_mult: 0
  }
  convolution_param {
    num_output: 24
    pad: 1
    kernel_size: 3
    stride: 1
    weight_filler {
      type: "xavier"
    }
    bias_filler {
      type: "constant"
      value: 0
    }
  }
}
layer {
  name: "conv8_2_mbox_loc_perm"
  type: "Permute"
  bottom: "conv8_2_mbox_loc"
  top: "conv8_2_mbox_loc_perm"
  permute_param {
    order: 0
    order: 2
    order: 3
    order: 1
  }
}
layer {
  name: "conv8_2_mbox_loc_flat"
  type: "Flatten"
  bottom: "conv8_2_mbox_loc_perm"
  top: "conv8_2_mbox_loc_flat"
  flatten_param {
    axis: 1
  }
}
layer {
  name: "conv8_2_mbox_conf"
  type: "Convolution"
  bottom: "conv8_2"
  top: "conv8_2_mbox_conf"
  param {
    lr_mult: 1
    decay_mult: 1
  }
  param {
    lr_mult: 2
    decay_mult: 0
  }
  convolution_param {
    num_output: 30
    pad: 1
    kernel_size: 3
    stride: 1
    weight_filler {
      type: "xavier"
    }
    bias_filler {
      type: "constant"
      value: 0
    }
  }
}
layer {
  name: "conv8_2_mbox_conf_perm"
  type: "Permute"
  bottom: "conv8_2_mbox_conf"
  top: "conv8_2_mbox_conf_perm"
  permute_param {
    order: 0
    order: 2
    order: 3
    order: 1
  }
}
layer {
  name: "conv8_2_mbox_conf_flat"
  type: "Flatten"
  bottom: "conv8_2_mbox_conf_perm"
  top: "conv8_2_mbox_conf_flat"
  flatten_param {
    axis: 1
  }
}
layer {
  name: "conv8_2_mbox_priorbox"
  type: "PriorBox"
  bottom: "conv8_2"
  bottom: "data"
  top: "conv8_2_mbox_priorbox"
  prior_box_param {
    min_size: 307.2
    max_size: 384
    aspect_ratio: 2
    aspect_ratio: 3
    flip: true
    clip: false
    variance: 0.1
    variance: 0.1
    variance: 0.2
    variance: 0.2
    step: 128
    offset: 0.5
  }
}
layer {
  name: "conv9_2_mbox_loc"
  type: "Convolution"
  bottom: "conv9_2"
  top: "conv9_2_mbox_loc"
  param {
    lr_mult: 1
    decay_mult: 1
  }
  param {
    lr_mult: 2
    decay_mult: 0
  }
  convolution_param {
    num_output: 16
    pad: 1
    kernel_size: 3
    stride: 1
    weight_filler {
      type: "xavier"
    }
    bias_filler {
      type: "constant"
      value: 0
    }
  }
}
layer {
  name: "conv9_2_mbox_loc_perm"
  type: "Permute"
  bottom: "conv9_2_mbox_loc"
  top: "conv9_2_mbox_loc_perm"
  permute_param {
    order: 0
    order: 2
    order: 3
    order: 1
  }
}
layer {
  name: "conv9_2_mbox_loc_flat"
  type: "Flatten"
  bottom: "conv9_2_mbox_loc_perm"
  top: "conv9_2_mbox_loc_flat"
  flatten_param {
    axis: 1
  }
}
layer {
  name: "conv9_2_mbox_conf"
  type: "Convolution"
  bottom: "conv9_2"
  top: "conv9_2_mbox_conf"
  param {
    lr_mult: 1
    decay_mult: 1
  }
  param {
    lr_mult: 2
    decay_mult: 0
  }
  convolution_param {
    num_output: 20
    pad: 1
    kernel_size: 3
    stride: 1
    weight_filler {
      type: "xavier"
    }
    bias_filler {
      type: "constant"
      value: 0
    }
  }
}
layer {
  name: "conv9_2_mbox_conf_perm"
  type: "Permute"
  bottom: "conv9_2_mbox_conf"
  top: "conv9_2_mbox_conf_perm"
  permute_param {
    order: 0
    order: 2
    order: 3
    order: 1
  }
}
layer {
  name: "conv9_2_mbox_conf_flat"
  type: "Flatten"
  bottom: "conv9_2_mbox_conf_perm"
  top: "conv9_2_mbox_conf_flat"
  flatten_param {
    axis: 1
  }
}
layer {
  name: "conv9_2_mbox_priorbox"
  type: "PriorBox"
  bottom: "conv9_2"
  bottom: "data"
  top: "conv9_2_mbox_priorbox"
  prior_box_param {
    min_size: 384
    max_size: 460.8
    aspect_ratio: 2
    flip: true
    clip: false
    variance: 0.1
    variance: 0.1
    variance: 0.2
    variance: 0.2
    step: 256
    offset: 0.5
  }
}
layer {
  name: "conv10_2_mbox_loc"
  type: "Convolution"
  bottom: "conv10_2"
  top: "conv10_2_mbox_loc"
  param {
    lr_mult: 1
    decay_mult: 1
  }
  param {
    lr_mult: 2
    decay_mult: 0
  }
  convolution_param {
    num_output: 16
    pad: 1
    kernel_size: 3
    stride: 1
    weight_filler {
      type: "xavier"
    }
    bias_filler {
      type: "constant"
      value: 0
    }
  }
}
layer {
  name: "conv10_2_mbox_loc_perm"
  type: "Permute"
  bottom: "conv10_2_mbox_loc"
  top: "conv10_2_mbox_loc_perm"
  permute_param {
    order: 0
    order: 2
    order: 3
    order: 1
  }
}
layer {
  name: "conv10_2_mbox_loc_flat"
  type: "Flatten"
  bottom: "conv10_2_mbox_loc_perm"
  top: "conv10_2_mbox_loc_flat"
  flatten_param {
    axis: 1
  }
}
layer {
  name: "conv10_2_mbox_conf"
  type: "Convolution"
  bottom: "conv10_2"
  top: "conv10_2_mbox_conf"
  param {
    lr_mult: 1
    decay_mult: 1
  }
  param {
    lr_mult: 2
    decay_mult: 0
  }
  convolution_param {
    num_output: 20
    pad: 1
    kernel_size: 3
    stride: 1
    weight_filler {
      type: "xavier"
    }
    bias_filler {
      type: "constant"
      value: 0
    }
  }
}
layer {
  name: "conv10_2_mbox_conf_perm"
  type: "Permute"
  bottom: "conv10_2_mbox_conf"
  top: "conv10_2_mbox_conf_perm"
  permute_param {
    order: 0
    order: 2
    order: 3
    order: 1
  }
}
layer {
  name: "conv10_2_mbox_conf_flat"
  type: "Flatten"
  bottom: "conv10_2_mbox_conf_perm"
  top: "conv10_2_mbox_conf_flat"
  flatten_param {
    axis: 1
  }
}
layer {
  name: "conv10_2_mbox_priorbox"
  type: "PriorBox"
  bottom: "conv10_2"
  bottom: "data"
  top: "conv10_2_mbox_priorbox"
  prior_box_param {
    min_size: 460.8
    max_size: 537.6
    aspect_ratio: 2
    flip: true
    clip: false
    variance: 0.1
    variance: 0.1
    variance: 0.2
    variance: 0.2
    step: 512
    offset: 0.5
  }
}
layer {
  name: "mbox_loc"
  type: "Concat"
  bottom: "conv4_3_norm_mbox_loc_flat"
  bottom: "fc7_mbox_loc_flat"
  bottom: "conv6_2_mbox_loc_flat"
  bottom: "conv7_2_mbox_loc_flat"
  bottom: "conv8_2_mbox_loc_flat"
  bottom: "conv9_2_mbox_loc_flat"
  bottom: "conv10_2_mbox_loc_flat"
  top: "mbox_loc"
  concat_param {
    axis: 1
  }
}
layer {
  name: "mbox_conf"
  type: "Concat"
  bottom: "conv4_3_norm_mbox_conf_flat"
  bottom: "fc7_mbox_conf_flat"
  bottom: "conv6_2_mbox_conf_flat"
  bottom: "conv7_2_mbox_conf_flat"
  bottom: "conv8_2_mbox_conf_flat"
  bottom: "conv9_2_mbox_conf_flat"
  bottom: "conv10_2_mbox_conf_flat"
  top: "mbox_conf"
  concat_param {
    axis: 1
  }
}
layer {
  name: "mbox_priorbox"
  type: "Concat"
  bottom: "conv4_3_norm_mbox_priorbox"
  bottom: "fc7_mbox_priorbox"
  bottom: "conv6_2_mbox_priorbox"
  bottom: "conv7_2_mbox_priorbox"
  bottom: "conv8_2_mbox_priorbox"
  bottom: "conv9_2_mbox_priorbox"
  bottom: "conv10_2_mbox_priorbox"
  top: "mbox_priorbox"
  concat_param {
    axis: 2
  }
}
layer {
  name: "mbox_loss"
  type: "MultiBoxLoss"
  bottom: "mbox_loc"
  bottom: "mbox_conf"
  bottom: "mbox_priorbox"
  bottom: "label"
  top: "mbox_loss"
  include {
    phase: TRAIN
  }
  propagate_down: true
  propagate_down: true
  propagate_down: false
  propagate_down: false
  loss_param {
    normalization: VALID
  }
  multibox_loss_param {
    loc_loss_type: SMOOTH_L1
    conf_loss_type: SOFTMAX
    loc_weight: 1
    num_classes: 5
    share_location: true
    match_type: PER_PREDICTION
    overlap_threshold: 0.5
    use_prior_for_matching: true
    background_label_id: 0
    use_difficult_gt: true
    neg_pos_ratio: 3
    neg_overlap: 0.5
    code_type: CENTER_SIZE
    ignore_cross_boundar
I0206 07:36:29.268434  6300 layer_factory.hpp:77] Creating layer data
I0206 07:36:29.268807  6300 net.cpp:100] Creating Layer data
I0206 07:36:29.268824  6300 net.cpp:408] data -> data
I0206 07:36:29.268858  6300 net.cpp:408] data -> label
I0206 07:36:29.269572  6316 db_lmdb.cpp:35] Opened lmdb examples/actions/actions_train_lmdb
I0206 07:36:29.369770  6300 annotated_data_layer.cpp:62] output data size: 4,3,512,512
I0206 07:36:29.384373  6300 net.cpp:150] Setting up data
I0206 07:36:29.384399  6300 net.cpp:157] Top shape: 4 3 512 512 (3145728)
I0206 07:36:29.384407  6300 net.cpp:157] Top shape: 1 1 5 8 (40)
I0206 07:36:29.384410  6300 net.cpp:165] Memory required for data: 12583072
I0206 07:36:29.384421  6300 layer_factory.hpp:77] Creating layer data_data_0_split
I0206 07:36:29.384436  6300 net.cpp:100] Creating Layer data_data_0_split
I0206 07:36:29.384443  6300 net.cpp:434] data_data_0_split <- data
I0206 07:36:29.384459  6300 net.cpp:408] data_data_0_split -> data_data_0_split_0
I0206 07:36:29.384474  6300 net.cpp:408] data_data_0_split -> data_data_0_split_1
I0206 07:36:29.384481  6300 net.cpp:408] data_data_0_split -> data_data_0_split_2
I0206 07:36:29.384490  6300 net.cpp:408] data_data_0_split -> data_data_0_split_3
I0206 07:36:29.384496  6300 net.cpp:408] data_data_0_split -> data_data_0_split_4
I0206 07:36:29.384503  6300 net.cpp:408] data_data_0_split -> data_data_0_split_5
I0206 07:36:29.384510  6300 net.cpp:408] data_data_0_split -> data_data_0_split_6
I0206 07:36:29.384517  6300 net.cpp:408] data_data_0_split -> data_data_0_split_7
I0206 07:36:29.384622  6300 net.cpp:150] Setting up data_data_0_split
I0206 07:36:29.384634  6300 net.cpp:157] Top shape: 4 3 512 512 (3145728)
I0206 07:36:29.384640  6300 net.cpp:157] Top shape: 4 3 512 512 (3145728)
I0206 07:36:29.384645  6300 net.cpp:157] Top shape: 4 3 512 512 (3145728)
I0206 07:36:29.384672  6300 net.cpp:157] Top shape: 4 3 512 512 (3145728)
I0206 07:36:29.384678  6300 net.cpp:157] Top shape: 4 3 512 512 (3145728)
I0206 07:36:29.384683  6300 net.cpp:157] Top shape: 4 3 512 512 (3145728)
I0206 07:36:29.384690  6300 net.cpp:157] Top shape: 4 3 512 512 (3145728)
I0206 07:36:29.384693  6300 net.cpp:157] Top shape: 4 3 512 512 (3145728)
I0206 07:36:29.384697  6300 net.cpp:165] Memory required for data: 113246368
I0206 07:36:29.384702  6300 layer_factory.hpp:77] Creating layer conv1_1
I0206 07:36:29.384721  6300 net.cpp:100] Creating Layer conv1_1
I0206 07:36:29.384727  6300 net.cpp:434] conv1_1 <- data_data_0_split_0
I0206 07:36:29.384734  6300 net.cpp:408] conv1_1 -> conv1_1
I0206 07:36:29.386425  6300 net.cpp:150] Setting up conv1_1
I0206 07:36:29.386438  6300 net.cpp:157] Top shape: 4 64 512 512 (67108864)
I0206 07:36:29.386443  6300 net.cpp:165] Memory required for data: 381681824
I0206 07:36:29.386461  6300 layer_factory.hpp:77] Creating layer relu1_1
I0206 07:36:29.386471  6300 net.cpp:100] Creating Layer relu1_1
I0206 07:36:29.386476  6300 net.cpp:434] relu1_1 <- conv1_1
I0206 07:36:29.386482  6300 net.cpp:395] relu1_1 -> conv1_1 (in-place)
I0206 07:36:29.386492  6300 net.cpp:150] Setting up relu1_1
I0206 07:36:29.386497  6300 net.cpp:157] Top shape: 4 64 512 512 (67108864)
I0206 07:36:29.386502  6300 net.cpp:165] Memory required for data: 650117280
I0206 07:36:29.386505  6300 layer_factory.hpp:77] Creating layer conv1_2
I0206 07:36:29.386518  6300 net.cpp:100] Creating Layer conv1_2
I0206 07:36:29.386523  6300 net.cpp:434] conv1_2 <- conv1_1
I0206 07:36:29.386529  6300 net.cpp:408] conv1_2 -> conv1_2
I0206 07:36:29.387619  6300 net.cpp:150] Setting up conv1_2
I0206 07:36:29.387634  6300 net.cpp:157] Top shape: 4 64 512 512 (67108864)
I0206 07:36:29.387637  6300 net.cpp:165] Memory required for data: 918552736
I0206 07:36:29.387648  6300 layer_factory.hpp:77] Creating layer relu1_2
I0206 07:36:29.387656  6300 net.cpp:100] Creating Layer relu1_2
I0206 07:36:29.387661  6300 net.cpp:434] relu1_2 <- conv1_2
I0206 07:36:29.387668  6300 net.cpp:395] relu1_2 -> conv1_2 (in-place)
I0206 07:36:29.387677  6300 net.cpp:150] Setting up relu1_2
I0206 07:36:29.387683  6300 net.cpp:157] Top shape: 4 64 512 512 (67108864)
I0206 07:36:29.387687  6300 net.cpp:165] Memory required for data: 1186988192
I0206 07:36:29.387691  6300 layer_factory.hpp:77] Creating layer pool1
I0206 07:36:29.387699  6300 net.cpp:100] Creating Layer pool1
I0206 07:36:29.387704  6300 net.cpp:434] pool1 <- conv1_2
I0206 07:36:29.387712  6300 net.cpp:408] pool1 -> pool1
I0206 07:36:29.387758  6300 net.cpp:150] Setting up pool1
I0206 07:36:29.387768  6300 net.cpp:157] Top shape: 4 64 256 256 (16777216)
I0206 07:36:29.387771  6300 net.cpp:165] Memory required for data: 1254097056
I0206 07:36:29.387775  6300 layer_factory.hpp:77] Creating layer conv2_1
I0206 07:36:29.387786  6300 net.cpp:100] Creating Layer conv2_1
I0206 07:36:29.387810  6300 net.cpp:434] conv2_1 <- pool1
I0206 07:36:29.387820  6300 net.cpp:408] conv2_1 -> conv2_1
I0206 07:36:29.388970  6300 net.cpp:150] Setting up conv2_1
I0206 07:36:29.388984  6300 net.cpp:157] Top shape: 4 128 256 256 (33554432)
I0206 07:36:29.388989  6300 net.cpp:165] Memory required for data: 1388314784
I0206 07:36:29.389000  6300 layer_factory.hpp:77] Creating layer relu2_1
I0206 07:36:29.389009  6300 net.cpp:100] Creating Layer relu2_1
I0206 07:36:29.389014  6300 net.cpp:434] relu2_1 <- conv2_1
I0206 07:36:29.389022  6300 net.cpp:395] relu2_1 -> conv2_1 (in-place)
I0206 07:36:29.389030  6300 net.cpp:150] Setting up relu2_1
I0206 07:36:29.389036  6300 net.cpp:157] Top shape: 4 128 256 256 (33554432)
I0206 07:36:29.389040  6300 net.cpp:165] Memory required for data: 1522532512
I0206 07:36:29.389045  6300 layer_factory.hpp:77] Creating layer conv2_2
I0206 07:36:29.389055  6300 net.cpp:100] Creating Layer conv2_2
I0206 07:36:29.389060  6300 net.cpp:434] conv2_2 <- conv2_1
I0206 07:36:29.389068  6300 net.cpp:408] conv2_2 -> conv2_2
I0206 07:36:29.389828  6300 net.cpp:150] Setting up conv2_2
I0206 07:36:29.389853  6300 net.cpp:157] Top shape: 4 128 256 256 (33554432)
I0206 07:36:29.389858  6300 net.cpp:165] Memory required for data: 1656750240
I0206 07:36:29.389866  6300 layer_factory.hpp:77] Creating layer relu2_2
I0206 07:36:29.389873  6300 net.cpp:100] Creating Layer relu2_2
I0206 07:36:29.389878  6300 net.cpp:434] relu2_2 <- conv2_2
I0206 07:36:29.389885  6300 net.cpp:395] relu2_2 -> conv2_2 (in-place)
I0206 07:36:29.389894  6300 net.cpp:150] Setting up relu2_2
I0206 07:36:29.389899  6300 net.cpp:157] Top shape: 4 128 256 256 (33554432)
I0206 07:36:29.389904  6300 net.cpp:165] Memory required for data: 1790967968
I0206 07:36:29.389907  6300 layer_factory.hpp:77] Creating layer pool2
I0206 07:36:29.389914  6300 net.cpp:100] Creating Layer pool2
I0206 07:36:29.389919  6300 net.cpp:434] pool2 <- conv2_2
I0206 07:36:29.389925  6300 net.cpp:408] pool2 -> pool2
I0206 07:36:29.389963  6300 net.cpp:150] Setting up pool2
I0206 07:36:29.389971  6300 net.cpp:157] Top shape: 4 128 128 128 (8388608)
I0206 07:36:29.389976  6300 net.cpp:165] Memory required for data: 1824522400
I0206 07:36:29.389981  6300 layer_factory.hpp:77] Creating layer conv3_1
I0206 07:36:29.389991  6300 net.cpp:100] Creating Layer conv3_1
I0206 07:36:29.389995  6300 net.cpp:434] conv3_1 <- pool2
I0206 07:36:29.390002  6300 net.cpp:408] conv3_1 -> conv3_1
I0206 07:36:29.395393  6300 net.cpp:150] Setting up conv3_1
I0206 07:36:29.395419  6300 net.cpp:157] Top shape: 4 256 128 128 (16777216)
I0206 07:36:29.395423  6300 net.cpp:165] Memory required for data: 1891631264
I0206 07:36:29.395440  6300 layer_factory.hpp:77] Creating layer relu3_1
I0206 07:36:29.395452  6300 net.cpp:100] Creating Layer relu3_1
I0206 07:36:29.395459  6300 net.cpp:434] relu3_1 <- conv3_1
I0206 07:36:29.395467  6300 net.cpp:395] relu3_1 -> conv3_1 (in-place)
I0206 07:36:29.395479  6300 net.cpp:150] Setting up relu3_1
I0206 07:36:29.395486  6300 net.cpp:157] Top shape: 4 256 128 128 (16777216)
I0206 07:36:29.395490  6300 net.cpp:165] Memory required for data: 1958740128
I0206 07:36:29.395494  6300 layer_factory.hpp:77] Creating layer conv3_2
I0206 07:36:29.395509  6300 net.cpp:100] Creating Layer conv3_2
I0206 07:36:29.395514  6300 net.cpp:434] conv3_2 <- conv3_1
I0206 07:36:29.395519  6300 net.cpp:408] conv3_2 -> conv3_2
I0206 07:36:29.398630  6300 net.cpp:150] Setting up conv3_2
I0206 07:36:29.398644  6300 net.cpp:157] Top shape: 4 256 128 128 (16777216)
I0206 07:36:29.398648  6300 net.cpp:165] Memory required for data: 2025848992
I0206 07:36:29.398658  6300 layer_factory.hpp:77] Creating layer relu3_2
I0206 07:36:29.398665  6300 net.cpp:100] Creating Layer relu3_2
I0206 07:36:29.398670  6300 net.cpp:434] relu3_2 <- conv3_2
I0206 07:36:29.398677  6300 net.cpp:395] relu3_2 -> conv3_2 (in-place)
I0206 07:36:29.398686  6300 net.cpp:150] Setting up relu3_2
I0206 07:36:29.398692  6300 net.cpp:157] Top shape: 4 256 128 128 (16777216)
I0206 07:36:29.398696  6300 net.cpp:165] Memory required for data: 2092957856
I0206 07:36:29.398700  6300 layer_factory.hpp:77] Creating layer conv3_3
I0206 07:36:29.398715  6300 net.cpp:100] Creating Layer conv3_3
I0206 07:36:29.398720  6300 net.cpp:434] conv3_3 <- conv3_2
I0206 07:36:29.398726  6300 net.cpp:408] conv3_3 -> conv3_3
I0206 07:36:29.417800  6300 net.cpp:150] Setting up conv3_3
I0206 07:36:29.417825  6300 net.cpp:157] Top shape: 4 256 128 128 (16777216)
I0206 07:36:29.417830  6300 net.cpp:165] Memory required for data: 2160066720
I0206 07:36:29.417840  6300 layer_factory.hpp:77] Creating layer relu3_3
I0206 07:36:29.417852  6300 net.cpp:100] Creating Layer relu3_3
I0206 07:36:29.417860  6300 net.cpp:434] relu3_3 <- conv3_3
I0206 07:36:29.417868  6300 net.cpp:395] relu3_3 -> conv3_3 (in-place)
I0206 07:36:29.417879  6300 net.cpp:150] Setting up relu3_3
I0206 07:36:29.417886  6300 net.cpp:157] Top shape: 4 256 128 128 (16777216)
I0206 07:36:29.417889  6300 net.cpp:165] Memory required for data: 2227175584
I0206 07:36:29.417894  6300 layer_factory.hpp:77] Creating layer pool3
I0206 07:36:29.417902  6300 net.cpp:100] Creating Layer pool3
I0206 07:36:29.417928  6300 net.cpp:434] pool3 <- conv3_3
I0206 07:36:29.417937  6300 net.cpp:408] pool3 -> pool3
I0206 07:36:29.417979  6300 net.cpp:150] Setting up pool3
I0206 07:36:29.417987  6300 net.cpp:157] Top shape: 4 256 64 64 (4194304)
I0206 07:36:29.417991  6300 net.cpp:165] Memory required for data: 2243952800
I0206 07:36:29.417996  6300 layer_factory.hpp:77] Creating layer conv4_1
I0206 07:36:29.418009  6300 net.cpp:100] Creating Layer conv4_1
I0206 07:36:29.418015  6300 net.cpp:434] conv4_1 <- pool3
I0206 07:36:29.418021  6300 net.cpp:408] conv4_1 -> conv4_1
I0206 07:36:29.424432  6300 net.cpp:150] Setting up conv4_1
I0206 07:36:29.424448  6300 net.cpp:157] Top shape: 4 512 64 64 (8388608)
I0206 07:36:29.424453  6300 net.cpp:165] Memory required for data: 2277507232
I0206 07:36:29.424463  6300 layer_factory.hpp:77] Creating layer relu4_1
I0206 07:36:29.424470  6300 net.cpp:100] Creating Layer relu4_1
I0206 07:36:29.424476  6300 net.cpp:434] relu4_1 <- conv4_1
I0206 07:36:29.424484  6300 net.cpp:395] relu4_1 -> conv4_1 (in-place)
I0206 07:36:29.424494  6300 net.cpp:150] Setting up relu4_1
I0206 07:36:29.424499  6300 net.cpp:157] Top shape: 4 512 64 64 (8388608)
I0206 07:36:29.424504  6300 net.cpp:165] Memory required for data: 2311061664
I0206 07:36:29.424509  6300 layer_factory.hpp:77] Creating layer conv4_2
I0206 07:36:29.424520  6300 net.cpp:100] Creating Layer conv4_2
I0206 07:36:29.424525  6300 net.cpp:434] conv4_2 <- conv4_1
I0206 07:36:29.424531  6300 net.cpp:408] conv4_2 -> conv4_2
I0206 07:36:29.435581  6300 net.cpp:150] Setting up conv4_2
I0206 07:36:29.435606  6300 net.cpp:157] Top shape: 4 512 64 64 (8388608)
I0206 07:36:29.435611  6300 net.cpp:165] Memory required for data: 2344616096
I0206 07:36:29.435626  6300 layer_factory.hpp:77] Creating layer relu4_2
I0206 07:36:29.435636  6300 net.cpp:100] Creating Layer relu4_2
I0206 07:36:29.435642  6300 net.cpp:434] relu4_2 <- conv4_2
I0206 07:36:29.435649  6300 net.cpp:395] relu4_2 -> conv4_2 (in-place)
I0206 07:36:29.435659  6300 net.cpp:150] Setting up relu4_2
I0206 07:36:29.435665  6300 net.cpp:157] Top shape: 4 512 64 64 (8388608)
I0206 07:36:29.435668  6300 net.cpp:165] Memory required for data: 2378170528
I0206 07:36:29.435672  6300 layer_factory.hpp:77] Creating layer conv4_3
I0206 07:36:29.435684  6300 net.cpp:100] Creating Layer conv4_3
I0206 07:36:29.435699  6300 net.cpp:434] conv4_3 <- conv4_2
I0206 07:36:29.435706  6300 net.cpp:408] conv4_3 -> conv4_3
I0206 07:36:29.446606  6300 net.cpp:150] Setting up conv4_3
I0206 07:36:29.446629  6300 net.cpp:157] Top shape: 4 512 64 64 (8388608)
I0206 07:36:29.446632  6300 net.cpp:165] Memory required for data: 2411724960
I0206 07:36:29.446642  6300 layer_factory.hpp:77] Creating layer relu4_3
I0206 07:36:29.446651  6300 net.cpp:100] Creating Layer relu4_3
I0206 07:36:29.446671  6300 net.cpp:434] relu4_3 <- conv4_3
I0206 07:36:29.446682  6300 net.cpp:395] relu4_3 -> conv4_3 (in-place)
I0206 07:36:29.446693  6300 net.cpp:150] Setting up relu4_3
I0206 07:36:29.446702  6300 net.cpp:157] Top shape: 4 512 64 64 (8388608)
I0206 07:36:29.446708  6300 net.cpp:165] Memory required for data: 2445279392
I0206 07:36:29.446712  6300 layer_factory.hpp:77] Creating layer conv4_3_relu4_3_0_split
I0206 07:36:29.446725  6300 net.cpp:100] Creating Layer conv4_3_relu4_3_0_split
I0206 07:36:29.446730  6300 net.cpp:434] conv4_3_relu4_3_0_split <- conv4_3
I0206 07:36:29.446738  6300 net.cpp:408] conv4_3_relu4_3_0_split -> conv4_3_relu4_3_0_split_0
I0206 07:36:29.446756  6300 net.cpp:408] conv4_3_relu4_3_0_split -> conv4_3_relu4_3_0_split_1
I0206 07:36:29.446791  6300 net.cpp:150] Setting up conv4_3_relu4_3_0_split
I0206 07:36:29.446799  6300 net.cpp:157] Top shape: 4 512 64 64 (8388608)
I0206 07:36:29.446804  6300 net.cpp:157] Top shape: 4 512 64 64 (8388608)
I0206 07:36:29.446808  6300 net.cpp:165] Memory required for data: 2512388256
I0206 07:36:29.446812  6300 layer_factory.hpp:77] Creating layer pool4
I0206 07:36:29.446822  6300 net.cpp:100] Creating Layer pool4
I0206 07:36:29.446826  6300 net.cpp:434] pool4 <- conv4_3_relu4_3_0_split_0
I0206 07:36:29.446851  6300 net.cpp:408] pool4 -> pool4
I0206 07:36:29.446883  6300 net.cpp:150] Setting up pool4
I0206 07:36:29.446890  6300 net.cpp:157] Top shape: 4 512 32 32 (2097152)
I0206 07:36:29.446894  6300 net.cpp:165] Memory required for data: 2520776864
I0206 07:36:29.446898  6300 layer_factory.hpp:77] Creating layer conv5_1
I0206 07:36:29.446909  6300 net.cpp:100] Creating Layer conv5_1
I0206 07:36:29.446913  6300 net.cpp:434] conv5_1 <- pool4
I0206 07:36:29.446921  6300 net.cpp:408] conv5_1 -> conv5_1
I0206 07:36:29.457720  6300 net.cpp:150] Setting up conv5_1
I0206 07:36:29.457741  6300 net.cpp:157] Top shape: 4 512 32 32 (2097152)
I0206 07:36:29.457744  6300 net.cpp:165] Memory required for data: 2529165472
I0206 07:36:29.457754  6300 layer_factory.hpp:77] Creating layer relu5_1
I0206 07:36:29.457763  6300 net.cpp:100] Creating Layer relu5_1
I0206 07:36:29.457770  6300 net.cpp:434] relu5_1 <- conv5_1
I0206 07:36:29.457794  6300 net.cpp:395] relu5_1 -> conv5_1 (in-place)
I0206 07:36:29.457806  6300 net.cpp:150] Setting up relu5_1
I0206 07:36:29.457814  6300 net.cpp:157] Top shape: 4 512 32 32 (2097152)
I0206 07:36:29.457823  6300 net.cpp:165] Memory required for data: 2537554080
I0206 07:36:29.457826  6300 layer_factory.hpp:77] Creating layer conv5_2
I0206 07:36:29.457839  6300 net.cpp:100] Creating Layer conv5_2
I0206 07:36:29.457857  6300 net.cpp:434] conv5_2 <- conv5_1
I0206 07:36:29.457866  6300 net.cpp:408] conv5_2 -> conv5_2
I0206 07:36:29.468859  6300 net.cpp:150] Setting up conv5_2
I0206 07:36:29.468890  6300 net.cpp:157] Top shape: 4 512 32 32 (2097152)
I0206 07:36:29.468895  6300 net.cpp:165] Memory required for data: 2545942688
I0206 07:36:29.468905  6300 layer_factory.hpp:77] Creating layer relu5_2
I0206 07:36:29.468917  6300 net.cpp:100] Creating Layer relu5_2
I0206 07:36:29.468924  6300 net.cpp:434] relu5_2 <- conv5_2
I0206 07:36:29.468955  6300 net.cpp:395] relu5_2 -> conv5_2 (in-place)
I0206 07:36:29.468966  6300 net.cpp:150] Setting up relu5_2
I0206 07:36:29.468972  6300 net.cpp:157] Top shape: 4 512 32 32 (2097152)
I0206 07:36:29.468976  6300 net.cpp:165] Memory required for data: 2554331296
I0206 07:36:29.468981  6300 layer_factory.hpp:77] Creating layer conv5_3
I0206 07:36:29.468993  6300 net.cpp:100] Creating Layer conv5_3
I0206 07:36:29.468999  6300 net.cpp:434] conv5_3 <- conv5_2
I0206 07:36:29.469007  6300 net.cpp:408] conv5_3 -> conv5_3
I0206 07:36:29.632045  6300 net.cpp:150] Setting up conv5_3
I0206 07:36:29.632076  6300 net.cpp:157] Top shape: 4 512 32 32 (2097152)
I0206 07:36:29.632081  6300 net.cpp:165] Memory required for data: 2562719904
I0206 07:36:29.632092  6300 layer_factory.hpp:77] Creating layer relu5_3
I0206 07:36:29.632109  6300 net.cpp:100] Creating Layer relu5_3
I0206 07:36:29.632115  6300 net.cpp:434] relu5_3 <- conv5_3
I0206 07:36:29.632131  6300 net.cpp:395] relu5_3 -> conv5_3 (in-place)
I0206 07:36:29.632143  6300 net.cpp:150] Setting up relu5_3
I0206 07:36:29.632149  6300 net.cpp:157] Top shape: 4 512 32 32 (2097152)
I0206 07:36:29.632155  6300 net.cpp:165] Memory required for data: 2571108512
I0206 07:36:29.632159  6300 layer_factory.hpp:77] Creating layer pool5
I0206 07:36:29.632166  6300 net.cpp:100] Creating Layer pool5
I0206 07:36:29.632171  6300 net.cpp:434] pool5 <- conv5_3
I0206 07:36:29.632177  6300 net.cpp:408] pool5 -> pool5
I0206 07:36:29.632218  6300 net.cpp:150] Setting up pool5
I0206 07:36:29.632246  6300 net.cpp:157] Top shape: 4 512 32 32 (2097152)
I0206 07:36:29.632259  6300 net.cpp:165] Memory required for data: 2579497120
I0206 07:36:29.632270  6300 layer_factory.hpp:77] Creating layer fc6
I0206 07:36:29.632293  6300 net.cpp:100] Creating Layer fc6
I0206 07:36:29.632308  6300 net.cpp:434] fc6 <- pool5
I0206 07:36:29.632323  6300 net.cpp:408] fc6 -> fc6
I0206 07:36:29.660169  6300 net.cpp:150] Setting up fc6
I0206 07:36:29.660200  6300 net.cpp:157] Top shape: 4 1024 32 32 (4194304)
I0206 07:36:29.660204  6300 net.cpp:165] Memory required for data: 2596274336
I0206 07:36:29.660215  6300 layer_factory.hpp:77] Creating layer relu6
I0206 07:36:29.660256  6300 net.cpp:100] Creating Layer relu6
I0206 07:36:29.660265  6300 net.cpp:434] relu6 <- fc6
I0206 07:36:29.660280  6300 net.cpp:395] relu6 -> fc6 (in-place)
I0206 07:36:29.660293  6300 net.cpp:150] Setting up relu6
I0206 07:36:29.660300  6300 net.cpp:157] Top shape: 4 1024 32 32 (4194304)
I0206 07:36:29.660306  6300 net.cpp:165] Memory required for data: 2613051552
I0206 07:36:29.660310  6300 layer_factory.hpp:77] Creating layer fc7
I0206 07:36:29.660326  6300 net.cpp:100] Creating Layer fc7
I0206 07:36:29.660331  6300 net.cpp:434] fc7 <- fc6
I0206 07:36:29.660337  6300 net.cpp:408] fc7 -> fc7
I0206 07:36:29.666316  6300 net.cpp:150] Setting up fc7
I0206 07:36:29.666328  6300 net.cpp:157] Top shape: 4 1024 32 32 (4194304)
I0206 07:36:29.666332  6300 net.cpp:165] Memory required for data: 2629828768
I0206 07:36:29.666337  6300 layer_factory.hpp:77] Creating layer relu7
I0206 07:36:29.666344  6300 net.cpp:100] Creating Layer relu7
I0206 07:36:29.666348  6300 net.cpp:434] relu7 <- fc7
I0206 07:36:29.666354  6300 net.cpp:395] relu7 -> fc7 (in-place)
I0206 07:36:29.666363  6300 net.cpp:150] Setting up relu7
I0206 07:36:29.666368  6300 net.cpp:157] Top shape: 4 1024 32 32 (4194304)
I0206 07:36:29.666369  6300 net.cpp:165] Memory required for data: 2646605984
I0206 07:36:29.666371  6300 layer_factory.hpp:77] Creating layer fc7_relu7_0_split
I0206 07:36:29.666376  6300 net.cpp:100] Creating Layer fc7_relu7_0_split
I0206 07:36:29.666380  6300 net.cpp:434] fc7_relu7_0_split <- fc7
I0206 07:36:29.666384  6300 net.cpp:408] fc7_relu7_0_split -> fc7_relu7_0_split_0
I0206 07:36:29.666393  6300 net.cpp:408] fc7_relu7_0_split -> fc7_relu7_0_split_1
I0206 07:36:29.666398  6300 net.cpp:408] fc7_relu7_0_split -> fc7_relu7_0_split_2
I0206 07:36:29.666402  6300 net.cpp:408] fc7_relu7_0_split -> fc7_relu7_0_split_3
I0206 07:36:29.666445  6300 net.cpp:150] Setting up fc7_relu7_0_split
I0206 07:36:29.666451  6300 net.cpp:157] Top shape: 4 1024 32 32 (4194304)
I0206 07:36:29.666455  6300 net.cpp:157] Top shape: 4 1024 32 32 (4194304)
I0206 07:36:29.666457  6300 net.cpp:157] Top shape: 4 1024 32 32 (4194304)
I0206 07:36:29.666460  6300 net.cpp:157] Top shape: 4 1024 32 32 (4194304)
I0206 07:36:29.666461  6300 net.cpp:165] Memory required for data: 2713714848
I0206 07:36:29.666465  6300 layer_factory.hpp:77] Creating layer conv6_1
I0206 07:36:29.666472  6300 net.cpp:100] Creating Layer conv6_1
I0206 07:36:29.666477  6300 net.cpp:434] conv6_1 <- fc7_relu7_0_split_0
I0206 07:36:29.666486  6300 net.cpp:408] conv6_1 -> conv6_1
I0206 07:36:29.668301  6300 net.cpp:150] Setting up conv6_1
I0206 07:36:29.668314  6300 net.cpp:157] Top shape: 4 256 32 32 (1048576)
I0206 07:36:29.668318  6300 net.cpp:165] Memory required for data: 2717909152
I0206 07:36:29.668326  6300 layer_factory.hpp:77] Creating layer conv6_1_relu
I0206 07:36:29.668335  6300 net.cpp:100] Creating Layer conv6_1_relu
I0206 07:36:29.668340  6300 net.cpp:434] conv6_1_relu <- conv6_1
I0206 07:36:29.668349  6300 net.cpp:395] conv6_1_relu -> conv6_1 (in-place)
I0206 07:36:29.668359  6300 net.cpp:150] Setting up conv6_1_relu
I0206 07:36:29.668365  6300 net.cpp:157] Top shape: 4 256 32 32 (1048576)
I0206 07:36:29.668370  6300 net.cpp:165] Memory required for data: 2722103456
I0206 07:36:29.668375  6300 layer_factory.hpp:77] Creating layer conv6_2
I0206 07:36:29.668385  6300 net.cpp:100] Creating Layer conv6_2
I0206 07:36:29.668390  6300 net.cpp:434] conv6_2 <- conv6_1
I0206 07:36:29.668397  6300 net.cpp:408] conv6_2 -> conv6_2
I0206 07:36:29.674034  6300 net.cpp:150] Setting up conv6_2
I0206 07:36:29.674062  6300 net.cpp:157] Top shape: 4 512 16 16 (524288)
I0206 07:36:29.674067  6300 net.cpp:165] Memory required for data: 2724200608
I0206 07:36:29.674088  6300 layer_factory.hpp:77] Creating layer conv6_2_relu
I0206 07:36:29.674098  6300 net.cpp:100] Creating Layer conv6_2_relu
I0206 07:36:29.674104  6300 net.cpp:434] conv6_2_relu <- conv6_2
I0206 07:36:29.674126  6300 net.cpp:395] conv6_2_relu -> conv6_2 (in-place)
I0206 07:36:29.674139  6300 net.cpp:150] Setting up conv6_2_relu
I0206 07:36:29.674163  6300 net.cpp:157] Top shape: 4 512 16 16 (524288)
I0206 07:36:29.674180  6300 net.cpp:165] Memory required for data: 2726297760
I0206 07:36:29.674183  6300 layer_factory.hpp:77] Creating layer conv6_2_conv6_2_relu_0_split
I0206 07:36:29.674191  6300 net.cpp:100] Creating Layer conv6_2_conv6_2_relu_0_split
I0206 07:36:29.674196  6300 net.cpp:434] conv6_2_conv6_2_relu_0_split <- conv6_2
I0206 07:36:29.674203  6300 net.cpp:408] conv6_2_conv6_2_relu_0_split -> conv6_2_conv6_2_relu_0_split_0
I0206 07:36:29.674213  6300 net.cpp:408] conv6_2_conv6_2_relu_0_split -> conv6_2_conv6_2_relu_0_split_1
I0206 07:36:29.674221  6300 net.cpp:408] conv6_2_conv6_2_relu_0_split -> conv6_2_conv6_2_relu_0_split_2
I0206 07:36:29.674232  6300 net.cpp:408] conv6_2_conv6_2_relu_0_split -> conv6_2_conv6_2_relu_0_split_3
I0206 07:36:29.674278  6300 net.cpp:150] Setting up conv6_2_conv6_2_relu_0_split
I0206 07:36:29.674288  6300 net.cpp:157] Top shape: 4 512 16 16 (524288)
I0206 07:36:29.674294  6300 net.cpp:157] Top shape: 4 512 16 16 (524288)
I0206 07:36:29.674299  6300 net.cpp:157] Top shape: 4 512 16 16 (524288)
I0206 07:36:29.674302  6300 net.cpp:157] Top shape: 4 512 16 16 (524288)
I0206 07:36:29.674305  6300 net.cpp:165] Memory required for data: 2734686368
I0206 07:36:29.674307  6300 layer_factory.hpp:77] Creating layer conv7_1
I0206 07:36:29.674322  6300 net.cpp:100] Creating Layer conv7_1
I0206 07:36:29.674326  6300 net.cpp:434] conv7_1 <- conv6_2_conv6_2_relu_0_split_0
I0206 07:36:29.674331  6300 net.cpp:408] conv7_1 -> conv7_1
I0206 07:36:29.674753  6300 net.cpp:150] Setting up conv7_1
I0206 07:36:29.674762  6300 net.cpp:157] Top shape: 4 128 16 16 (131072)
I0206 07:36:29.674765  6300 net.cpp:165] Memory required for data: 2735210656
I0206 07:36:29.674770  6300 layer_factory.hpp:77] Creating layer conv7_1_relu
I0206 07:36:29.674775  6300 net.cpp:100] Creating Layer conv7_1_relu
I0206 07:36:29.674780  6300 net.cpp:434] conv7_1_relu <- conv7_1
I0206 07:36:29.674784  6300 net.cpp:395] conv7_1_relu -> conv7_1 (in-place)
I0206 07:36:29.674789  6300 net.cpp:150] Setting up conv7_1_relu
I0206 07:36:29.674794  6300 net.cpp:157] Top shape: 4 128 16 16 (131072)
I0206 07:36:29.674796  6300 net.cpp:165] Memory required for data: 2735734944
I0206 07:36:29.674799  6300 layer_factory.hpp:77] Creating layer conv7_2
I0206 07:36:29.674813  6300 net.cpp:100] Creating Layer conv7_2
I0206 07:36:29.674816  6300 net.cpp:434] conv7_2 <- conv7_1
I0206 07:36:29.674821  6300 net.cpp:408] conv7_2 -> conv7_2
I0206 07:36:29.676985  6300 net.cpp:150] Setting up conv7_2
I0206 07:36:29.677016  6300 net.cpp:157] Top shape: 4 256 8 8 (65536)
I0206 07:36:29.677018  6300 net.cpp:165] Memory required for data: 2735997088
I0206 07:36:29.677026  6300 layer_factory.hpp:77] Creating layer conv7_2_relu
I0206 07:36:29.677037  6300 net.cpp:100] Creating Layer conv7_2_relu
I0206 07:36:29.677042  6300 net.cpp:434] conv7_2_relu <- conv7_2
I0206 07:36:29.677049  6300 net.cpp:395] conv7_2_relu -> conv7_2 (in-place)
I0206 07:36:29.677058  6300 net.cpp:150] Setting up conv7_2_relu
I0206 07:36:29.677062  6300 net.cpp:157] Top shape: 4 256 8 8 (65536)
I0206 07:36:29.677065  6300 net.cpp:165] Memory required for data: 2736259232
I0206 07:36:29.677067  6300 layer_factory.hpp:77] Creating layer conv7_2_conv7_2_relu_0_split
I0206 07:36:29.677075  6300 net.cpp:100] Creating Layer conv7_2_conv7_2_relu_0_split
I0206 07:36:29.677078  6300 net.cpp:434] conv7_2_conv7_2_relu_0_split <- conv7_2
I0206 07:36:29.677083  6300 net.cpp:408] conv7_2_conv7_2_relu_0_split -> conv7_2_conv7_2_relu_0_split_0
I0206 07:36:29.677089  6300 net.cpp:408] conv7_2_conv7_2_relu_0_split -> conv7_2_conv7_2_relu_0_split_1
I0206 07:36:29.677094  6300 net.cpp:408] conv7_2_conv7_2_relu_0_split -> conv7_2_conv7_2_relu_0_split_2
I0206 07:36:29.677101  6300 net.cpp:408] conv7_2_conv7_2_relu_0_split -> conv7_2_conv7_2_relu_0_split_3
I0206 07:36:29.677145  6300 net.cpp:150] Setting up conv7_2_conv7_2_relu_0_split
I0206 07:36:29.677152  6300 net.cpp:157] Top shape: 4 256 8 8 (65536)
I0206 07:36:29.677184  6300 net.cpp:157] Top shape: 4 256 8 8 (65536)
I0206 07:36:29.677208  6300 net.cpp:157] Top shape: 4 256 8 8 (65536)
I0206 07:36:29.677213  6300 net.cpp:157] Top shape: 4 256 8 8 (65536)
I0206 07:36:29.677217  6300 net.cpp:165] Memory required for data: 2737307808
I0206 07:36:29.677218  6300 layer_factory.hpp:77] Creating layer conv8_1
I0206 07:36:29.677229  6300 net.cpp:100] Creating Layer conv8_1
I0206 07:36:29.677235  6300 net.cpp:434] conv8_1 <- conv7_2_conv7_2_relu_0_split_0
I0206 07:36:29.677248  6300 net.cpp:408] conv8_1 -> conv8_1
I0206 07:36:29.677544  6300 net.cpp:150] Setting up conv8_1
I0206 07:36:29.677551  6300 net.cpp:157] Top shape: 4 128 8 8 (32768)
I0206 07:36:29.677552  6300 net.cpp:165] Memory required for data: 2737438880
I0206 07:36:29.677557  6300 layer_factory.hpp:77] Creating layer conv8_1_relu
I0206 07:36:29.677563  6300 net.cpp:100] Creating Layer conv8_1_relu
I0206 07:36:29.677567  6300 net.cpp:434] conv8_1_relu <- conv8_1
I0206 07:36:29.677570  6300 net.cpp:395] conv8_1_relu -> conv8_1 (in-place)
I0206 07:36:29.677574  6300 net.cpp:150] Setting up conv8_1_relu
I0206 07:36:29.677579  6300 net.cpp:157] Top shape: 4 128 8 8 (32768)
I0206 07:36:29.677582  6300 net.cpp:165] Memory required for data: 2737569952
I0206 07:36:29.677583  6300 layer_factory.hpp:77] Creating layer conv8_2
I0206 07:36:29.677592  6300 net.cpp:100] Creating Layer conv8_2
I0206 07:36:29.677595  6300 net.cpp:434] conv8_2 <- conv8_1
I0206 07:36:29.677599  6300 net.cpp:408] conv8_2 -> conv8_2
I0206 07:36:29.679729  6300 net.cpp:150] Setting up conv8_2
I0206 07:36:29.679756  6300 net.cpp:157] Top shape: 4 256 4 4 (16384)
I0206 07:36:29.679759  6300 net.cpp:165] Memory required for data: 2737635488
I0206 07:36:29.679767  6300 layer_factory.hpp:77] Creating layer conv8_2_relu
I0206 07:36:29.679778  6300 net.cpp:100] Creating Layer conv8_2_relu
I0206 07:36:29.679787  6300 net.cpp:434] conv8_2_relu <- conv8_2
I0206 07:36:29.679795  6300 net.cpp:395] conv8_2_relu -> conv8_2 (in-place)
I0206 07:36:29.679806  6300 net.cpp:150] Setting up conv8_2_relu
I0206 07:36:29.679812  6300 net.cpp:157] Top shape: 4 256 4 4 (16384)
I0206 07:36:29.679833  6300 net.cpp:165] Memory required for data: 2737701024
I0206 07:36:29.679837  6300 layer_factory.hpp:77] Creating layer conv8_2_conv8_2_relu_0_split
I0206 07:36:29.679846  6300 net.cpp:100] Creating Layer conv8_2_conv8_2_relu_0_split
I0206 07:36:29.679853  6300 net.cpp:434] conv8_2_conv8_2_relu_0_split <- conv8_2
I0206 07:36:29.679862  6300 net.cpp:408] conv8_2_conv8_2_relu_0_split -> conv8_2_conv8_2_relu_0_split_0
I0206 07:36:29.679877  6300 net.cpp:408] conv8_2_conv8_2_relu_0_split -> conv8_2_conv8_2_relu_0_split_1
I0206 07:36:29.679885  6300 net.cpp:408] conv8_2_conv8_2_relu_0_split -> conv8_2_conv8_2_relu_0_split_2
I0206 07:36:29.679891  6300 net.cpp:408] conv8_2_conv8_2_relu_0_split -> conv8_2_conv8_2_relu_0_split_3
I0206 07:36:29.679955  6300 net.cpp:150] Setting up conv8_2_conv8_2_relu_0_split
I0206 07:36:29.679963  6300 net.cpp:157] Top shape: 4 256 4 4 (16384)
I0206 07:36:29.679966  6300 net.cpp:157] Top shape: 4 256 4 4 (16384)
I0206 07:36:29.679970  6300 net.cpp:157] Top shape: 4 256 4 4 (16384)
I0206 07:36:29.679972  6300 net.cpp:157] Top shape: 4 256 4 4 (16384)
I0206 07:36:29.679975  6300 net.cpp:165] Memory required for data: 2737963168
I0206 07:36:29.679976  6300 layer_factory.hpp:77] Creating layer conv9_1
I0206 07:36:29.679986  6300 net.cpp:100] Creating Layer conv9_1
I0206 07:36:29.679991  6300 net.cpp:434] conv9_1 <- conv8_2_conv8_2_relu_0_split_0
I0206 07:36:29.679999  6300 net.cpp:408] conv9_1 -> conv9_1
I0206 07:36:29.680315  6300 net.cpp:150] Setting up conv9_1
I0206 07:36:29.680323  6300 net.cpp:157] Top shape: 4 128 4 4 (8192)
I0206 07:36:29.680326  6300 net.cpp:165] Memory required for data: 2737995936
I0206 07:36:29.680330  6300 layer_factory.hpp:77] Creating layer conv9_1_relu
I0206 07:36:29.680337  6300 net.cpp:100] Creating Layer conv9_1_relu
I0206 07:36:29.680341  6300 net.cpp:434] conv9_1_relu <- conv9_1
I0206 07:36:29.680344  6300 net.cpp:395] conv9_1_relu -> conv9_1 (in-place)
I0206 07:36:29.680367  6300 net.cpp:150] Setting up conv9_1_relu
I0206 07:36:29.680373  6300 net.cpp:157] Top shape: 4 128 4 4 (8192)
I0206 07:36:29.680375  6300 net.cpp:165] Memory required for data: 2738028704
I0206 07:36:29.680377  6300 layer_factory.hpp:77] Creating layer conv9_2
I0206 07:36:29.680385  6300 net.cpp:100] Creating Layer conv9_2
I0206 07:36:29.680389  6300 net.cpp:434] conv9_2 <- conv9_1
I0206 07:36:29.680394  6300 net.cpp:408] conv9_2 -> conv9_2
I0206 07:36:29.682528  6300 net.cpp:150] Setting up conv9_2
I0206 07:36:29.682546  6300 net.cpp:157] Top shape: 4 256 2 2 (4096)
I0206 07:36:29.682549  6300 net.cpp:165] Memory required for data: 2738045088
I0206 07:36:29.682556  6300 layer_factory.hpp:77] Creating layer conv9_2_relu
I0206 07:36:29.682564  6300 net.cpp:100] Creating Layer conv9_2_relu
I0206 07:36:29.682569  6300 net.cpp:434] conv9_2_relu <- conv9_2
I0206 07:36:29.682577  6300 net.cpp:395] conv9_2_relu -> conv9_2 (in-place)
I0206 07:36:29.682585  6300 net.cpp:150] Setting up conv9_2_relu
I0206 07:36:29.682590  6300 net.cpp:157] Top shape: 4 256 2 2 (4096)
I0206 07:36:29.682592  6300 net.cpp:165] Memory required for data: 2738061472
I0206 07:36:29.682595  6300 layer_factory.hpp:77] Creating layer conv9_2_conv9_2_relu_0_split
I0206 07:36:29.682600  6300 net.cpp:100] Creating Layer conv9_2_conv9_2_relu_0_split
I0206 07:36:29.682602  6300 net.cpp:434] conv9_2_conv9_2_relu_0_split <- conv9_2
I0206 07:36:29.682605  6300 net.cpp:408] conv9_2_conv9_2_relu_0_split -> conv9_2_conv9_2_relu_0_split_0
I0206 07:36:29.682610  6300 net.cpp:408] conv9_2_conv9_2_relu_0_split -> conv9_2_conv9_2_relu_0_split_1
I0206 07:36:29.682615  6300 net.cpp:408] conv9_2_conv9_2_relu_0_split -> conv9_2_conv9_2_relu_0_split_2
I0206 07:36:29.682621  6300 net.cpp:408] conv9_2_conv9_2_relu_0_split -> conv9_2_conv9_2_relu_0_split_3
I0206 07:36:29.682679  6300 net.cpp:150] Setting up conv9_2_conv9_2_relu_0_split
I0206 07:36:29.682688  6300 net.cpp:157] Top shape: 4 256 2 2 (4096)
I0206 07:36:29.682691  6300 net.cpp:157] Top shape: 4 256 2 2 (4096)
I0206 07:36:29.682694  6300 net.cpp:157] Top shape: 4 256 2 2 (4096)
I0206 07:36:29.682696  6300 net.cpp:157] Top shape: 4 256 2 2 (4096)
I0206 07:36:29.682698  6300 net.cpp:165] Memory required for data: 2738127008
I0206 07:36:29.682701  6300 layer_factory.hpp:77] Creating layer conv10_1
I0206 07:36:29.682710  6300 net.cpp:100] Creating Layer conv10_1
I0206 07:36:29.682715  6300 net.cpp:434] conv10_1 <- conv9_2_conv9_2_relu_0_split_0
I0206 07:36:29.682720  6300 net.cpp:408] conv10_1 -> conv10_1
I0206 07:36:29.683008  6300 net.cpp:150] Setting up conv10_1
I0206 07:36:29.683015  6300 net.cpp:157] Top shape: 4 128 2 2 (2048)
I0206 07:36:29.683017  6300 net.cpp:165] Memory required for data: 2738135200
I0206 07:36:29.683022  6300 layer_factory.hpp:77] Creating layer conv10_1_relu
I0206 07:36:29.683028  6300 net.cpp:100] Creating Layer conv10_1_relu
I0206 07:36:29.683032  6300 net.cpp:434] conv10_1_relu <- conv10_1
I0206 07:36:29.683035  6300 net.cpp:395] conv10_1_relu -> conv10_1 (in-place)
I0206 07:36:29.683042  6300 net.cpp:150] Setting up conv10_1_relu
I0206 07:36:29.683046  6300 net.cpp:157] Top shape: 4 128 2 2 (2048)
I0206 07:36:29.683048  6300 net.cpp:165] Memory required for data: 2738143392
I0206 07:36:29.683050  6300 layer_factory.hpp:77] Creating layer conv10_2
I0206 07:36:29.683058  6300 net.cpp:100] Creating Layer conv10_2
I0206 07:36:29.683061  6300 net.cpp:434] conv10_2 <- conv10_1
I0206 07:36:29.683065  6300 net.cpp:408] conv10_2 -> conv10_2
I0206 07:36:29.685956  6300 net.cpp:150] Setting up conv10_2
I0206 07:36:29.685976  6300 net.cpp:157] Top shape: 4 256 1 1 (1024)
I0206 07:36:29.685979  6300 net.cpp:165] Memory required for data: 2738147488
I0206 07:36:29.685986  6300 layer_factory.hpp:77] Creating layer conv10_2_relu
I0206 07:36:29.685992  6300 net.cpp:100] Creating Layer conv10_2_relu
I0206 07:36:29.685995  6300 net.cpp:434] conv10_2_relu <- conv10_2
I0206 07:36:29.686002  6300 net.cpp:395] conv10_2_relu -> conv10_2 (in-place)
I0206 07:36:29.686025  6300 net.cpp:150] Setting up conv10_2_relu
I0206 07:36:29.686031  6300 net.cpp:157] Top shape: 4 256 1 1 (1024)
I0206 07:36:29.686033  6300 net.cpp:165] Memory required for data: 2738151584
I0206 07:36:29.686035  6300 layer_factory.hpp:77] Creating layer conv10_2_conv10_2_relu_0_split
I0206 07:36:29.686040  6300 net.cpp:100] Creating Layer conv10_2_conv10_2_relu_0_split
I0206 07:36:29.686044  6300 net.cpp:434] conv10_2_conv10_2_relu_0_split <- conv10_2
I0206 07:36:29.686049  6300 net.cpp:408] conv10_2_conv10_2_relu_0_split -> conv10_2_conv10_2_relu_0_split_0
I0206 07:36:29.686054  6300 net.cpp:408] conv10_2_conv10_2_relu_0_split -> conv10_2_conv10_2_relu_0_split_1
I0206 07:36:29.686059  6300 net.cpp:408] conv10_2_conv10_2_relu_0_split -> conv10_2_conv10_2_relu_0_split_2
I0206 07:36:29.686113  6300 net.cpp:150] Setting up conv10_2_conv10_2_relu_0_split
I0206 07:36:29.686120  6300 net.cpp:157] Top shape: 4 256 1 1 (1024)
I0206 07:36:29.686123  6300 net.cpp:157] Top shape: 4 256 1 1 (1024)
I0206 07:36:29.686126  6300 net.cpp:157] Top shape: 4 256 1 1 (1024)
I0206 07:36:29.686128  6300 net.cpp:165] Memory required for data: 2738163872
I0206 07:36:29.686131  6300 layer_factory.hpp:77] Creating layer conv4_3_norm
I0206 07:36:29.686149  6300 net.cpp:100] Creating Layer conv4_3_norm
I0206 07:36:29.686154  6300 net.cpp:434] conv4_3_norm <- conv4_3_relu4_3_0_split_1
I0206 07:36:29.686161  6300 net.cpp:408] conv4_3_norm -> conv4_3_norm
I0206 07:36:29.686286  6300 net.cpp:150] Setting up conv4_3_norm
I0206 07:36:29.686293  6300 net.cpp:157] Top shape: 4 512 64 64 (8388608)
I0206 07:36:29.686295  6300 net.cpp:165] Memory required for data: 2771718304
I0206 07:36:29.686300  6300 layer_factory.hpp:77] Creating layer conv4_3_norm_conv4_3_norm_0_split
I0206 07:36:29.686306  6300 net.cpp:100] Creating Layer conv4_3_norm_conv4_3_norm_0_split
I0206 07:36:29.686309  6300 net.cpp:434] conv4_3_norm_conv4_3_norm_0_split <- conv4_3_norm
I0206 07:36:29.686314  6300 net.cpp:408] conv4_3_norm_conv4_3_norm_0_split -> conv4_3_norm_conv4_3_norm_0_split_0
I0206 07:36:29.686318  6300 net.cpp:408] conv4_3_norm_conv4_3_norm_0_split -> conv4_3_norm_conv4_3_norm_0_split_1
I0206 07:36:29.686326  6300 net.cpp:408] conv4_3_norm_conv4_3_norm_0_split -> conv4_3_norm_conv4_3_norm_0_split_2
I0206 07:36:29.686363  6300 net.cpp:150] Setting up conv4_3_norm_conv4_3_norm_0_split
I0206 07:36:29.686368  6300 net.cpp:157] Top shape: 4 512 64 64 (8388608)
I0206 07:36:29.686372  6300 net.cpp:157] Top shape: 4 512 64 64 (8388608)
I0206 07:36:29.686374  6300 net.cpp:157] Top shape: 4 512 64 64 (8388608)
I0206 07:36:29.686377  6300 net.cpp:165] Memory required for data: 2872381600
I0206 07:36:29.686379  6300 layer_factory.hpp:77] Creating layer conv4_3_norm_mbox_loc
I0206 07:36:29.686388  6300 net.cpp:100] Creating Layer conv4_3_norm_mbox_loc
I0206 07:36:29.686391  6300 net.cpp:434] conv4_3_norm_mbox_loc <- conv4_3_norm_conv4_3_norm_0_split_0
I0206 07:36:29.686396  6300 net.cpp:408] conv4_3_norm_mbox_loc -> conv4_3_norm_mbox_loc
I0206 07:36:29.686851  6300 net.cpp:150] Setting up conv4_3_norm_mbox_loc
I0206 07:36:29.686857  6300 net.cpp:157] Top shape: 4 16 64 64 (262144)
I0206 07:36:29.686859  6300 net.cpp:165] Memory required for data: 2873430176
I0206 07:36:29.686864  6300 layer_factory.hpp:77] Creating layer conv4_3_norm_mbox_loc_perm
I0206 07:36:29.686872  6300 net.cpp:100] Creating Layer conv4_3_norm_mbox_loc_perm
I0206 07:36:29.686875  6300 net.cpp:434] conv4_3_norm_mbox_loc_perm <- conv4_3_norm_mbox_loc
I0206 07:36:29.686880  6300 net.cpp:408] conv4_3_norm_mbox_loc_perm -> conv4_3_norm_mbox_loc_perm
I0206 07:36:29.686957  6300 net.cpp:150] Setting up conv4_3_norm_mbox_loc_perm
I0206 07:36:29.686964  6300 net.cpp:157] Top shape: 4 64 64 16 (262144)
I0206 07:36:29.686966  6300 net.cpp:165] Memory required for data: 2874478752
I0206 07:36:29.686969  6300 layer_factory.hpp:77] Creating layer conv4_3_norm_mbox_loc_flat
I0206 07:36:29.686974  6300 net.cpp:100] Creating Layer conv4_3_norm_mbox_loc_flat
I0206 07:36:29.686977  6300 net.cpp:434] conv4_3_norm_mbox_loc_flat <- conv4_3_norm_mbox_loc_perm
I0206 07:36:29.686993  6300 net.cpp:408] conv4_3_norm_mbox_loc_flat -> conv4_3_norm_mbox_loc_flat
I0206 07:36:29.687013  6300 net.cpp:150] Setting up conv4_3_norm_mbox_loc_flat
I0206 07:36:29.687018  6300 net.cpp:157] Top shape: 4 65536 (262144)
I0206 07:36:29.687021  6300 net.cpp:165] Memory required for data: 2875527328
I0206 07:36:29.687023  6300 layer_factory.hpp:77] Creating layer conv4_3_norm_mbox_conf
I0206 07:36:29.687031  6300 net.cpp:100] Creating Layer conv4_3_norm_mbox_conf
I0206 07:36:29.687036  6300 net.cpp:434] conv4_3_norm_mbox_conf <- conv4_3_norm_conv4_3_norm_0_split_1
I0206 07:36:29.687039  6300 net.cpp:408] conv4_3_norm_mbox_conf -> conv4_3_norm_mbox_conf
I0206 07:36:29.687567  6300 net.cpp:150] Setting up conv4_3_norm_mbox_conf
I0206 07:36:29.687575  6300 net.cpp:157] Top shape: 4 20 64 64 (327680)
I0206 07:36:29.687577  6300 net.cpp:165] Memory required for data: 2876838048
I0206 07:36:29.687582  6300 layer_factory.hpp:77] Creating layer conv4_3_norm_mbox_conf_perm
I0206 07:36:29.687590  6300 net.cpp:100] Creating Layer conv4_3_norm_mbox_conf_perm
I0206 07:36:29.687593  6300 net.cpp:434] conv4_3_norm_mbox_conf_perm <- conv4_3_norm_mbox_conf
I0206 07:36:29.687597  6300 net.cpp:408] conv4_3_norm_mbox_conf_perm -> conv4_3_norm_mbox_conf_perm
I0206 07:36:29.687676  6300 net.cpp:150] Setting up conv4_3_norm_mbox_conf_perm
I0206 07:36:29.687683  6300 net.cpp:157] Top shape: 4 64 64 20 (327680)
I0206 07:36:29.687686  6300 net.cpp:165] Memory required for data: 2878148768
I0206 07:36:29.687688  6300 layer_factory.hpp:77] Creating layer conv4_3_norm_mbox_conf_flat
I0206 07:36:29.687692  6300 net.cpp:100] Creating Layer conv4_3_norm_mbox_conf_flat
I0206 07:36:29.687695  6300 net.cpp:434] conv4_3_norm_mbox_conf_flat <- conv4_3_norm_mbox_conf_perm
I0206 07:36:29.687700  6300 net.cpp:408] conv4_3_norm_mbox_conf_flat -> conv4_3_norm_mbox_conf_flat
I0206 07:36:29.687717  6300 net.cpp:150] Setting up conv4_3_norm_mbox_conf_flat
I0206 07:36:29.687722  6300 net.cpp:157] Top shape: 4 81920 (327680)
I0206 07:36:29.687726  6300 net.cpp:165] Memory required for data: 2879459488
I0206 07:36:29.687727  6300 layer_factory.hpp:77] Creating layer conv4_3_norm_mbox_priorbox
I0206 07:36:29.687732  6300 net.cpp:100] Creating Layer conv4_3_norm_mbox_priorbox
I0206 07:36:29.687734  6300 net.cpp:434] conv4_3_norm_mbox_priorbox <- conv4_3_norm_conv4_3_norm_0_split_2
I0206 07:36:29.687738  6300 net.cpp:434] conv4_3_norm_mbox_priorbox <- data_data_0_split_1
I0206 07:36:29.687747  6300 net.cpp:408] conv4_3_norm_mbox_priorbox -> conv4_3_norm_mbox_priorbox
I0206 07:36:29.687769  6300 net.cpp:150] Setting up conv4_3_norm_mbox_priorbox
I0206 07:36:29.687777  6300 net.cpp:157] Top shape: 1 2 65536 (131072)
I0206 07:36:29.687779  6300 net.cpp:165] Memory required for data: 2879983776
I0206 07:36:29.687783  6300 layer_factory.hpp:77] Creating layer fc7_mbox_loc
I0206 07:36:29.687789  6300 net.cpp:100] Creating Layer fc7_mbox_loc
I0206 07:36:29.687793  6300 net.cpp:434] fc7_mbox_loc <- fc7_relu7_0_split_1
I0206 07:36:29.687798  6300 net.cpp:408] fc7_mbox_loc -> fc7_mbox_loc
I0206 07:36:29.688791  6300 net.cpp:150] Setting up fc7_mbox_loc
I0206 07:36:29.688797  6300 net.cpp:157] Top shape: 4 24 32 32 (98304)
I0206 07:36:29.688799  6300 net.cpp:165] Memory required for data: 2880376992
I0206 07:36:29.688804  6300 layer_factory.hpp:77] Creating layer fc7_mbox_loc_perm
I0206 07:36:29.688810  6300 net.cpp:100] Creating Layer fc7_mbox_loc_perm
I0206 07:36:29.688814  6300 net.cpp:434] fc7_mbox_loc_perm <- fc7_mbox_loc
I0206 07:36:29.688817  6300 net.cpp:408] fc7_mbox_loc_perm -> fc7_mbox_loc_perm
I0206 07:36:29.688895  6300 net.cpp:150] Setting up fc7_mbox_loc_perm
I0206 07:36:29.688902  6300 net.cpp:157] Top shape: 4 32 32 24 (98304)
I0206 07:36:29.688905  6300 net.cpp:165] Memory required for data: 2880770208
I0206 07:36:29.688906  6300 layer_factory.hpp:77] Creating layer fc7_mbox_loc_flat
I0206 07:36:29.688912  6300 net.cpp:100] Creating Layer fc7_mbox_loc_flat
I0206 07:36:29.688915  6300 net.cpp:434] fc7_mbox_loc_flat <- fc7_mbox_loc_perm
I0206 07:36:29.688930  6300 net.cpp:408] fc7_mbox_loc_flat -> fc7_mbox_loc_flat
I0206 07:36:29.688949  6300 net.cpp:150] Setting up fc7_mbox_loc_flat
I0206 07:36:29.688954  6300 net.cpp:157] Top shape: 4 24576 (98304)
I0206 07:36:29.688957  6300 net.cpp:165] Memory required for data: 2881163424
I0206 07:36:29.688959  6300 layer_factory.hpp:77] Creating layer fc7_mbox_conf
I0206 07:36:29.688966  6300 net.cpp:100] Creating Layer fc7_mbox_conf
I0206 07:36:29.688971  6300 net.cpp:434] fc7_mbox_conf <- fc7_relu7_0_split_2
I0206 07:36:29.688976  6300 net.cpp:408] fc7_mbox_conf -> fc7_mbox_conf
I0206 07:36:29.691890  6300 net.cpp:150] Setting up fc7_mbox_conf
I0206 07:36:29.691905  6300 net.cpp:157] Top shape: 4 30 32 32 (122880)
I0206 07:36:29.691907  6300 net.cpp:165] Memory required for data: 2881654944
I0206 07:36:29.691913  6300 layer_factory.hpp:77] Creating layer fc7_mbox_conf_perm
I0206 07:36:29.691922  6300 net.cpp:100] Creating Layer fc7_mbox_conf_perm
I0206 07:36:29.691927  6300 net.cpp:434] fc7_mbox_conf_perm <- fc7_mbox_conf
I0206 07:36:29.691932  6300 net.cpp:408] fc7_mbox_conf_perm -> fc7_mbox_conf_perm
I0206 07:36:29.692003  6300 net.cpp:150] Setting up fc7_mbox_conf_perm
I0206 07:36:29.692009  6300 net.cpp:157] Top shape: 4 32 32 30 (122880)
I0206 07:36:29.692011  6300 net.cpp:165] Memory required for data: 2882146464
I0206 07:36:29.692014  6300 layer_factory.hpp:77] Creating layer fc7_mbox_conf_flat
I0206 07:36:29.692020  6300 net.cpp:100] Creating Layer fc7_mbox_conf_flat
I0206 07:36:29.692024  6300 net.cpp:434] fc7_mbox_conf_flat <- fc7_mbox_conf_perm
I0206 07:36:29.692028  6300 net.cpp:408] fc7_mbox_conf_flat -> fc7_mbox_conf_flat
I0206 07:36:29.692049  6300 net.cpp:150] Setting up fc7_mbox_conf_flat
I0206 07:36:29.692057  6300 net.cpp:157] Top shape: 4 30720 (122880)
I0206 07:36:29.692062  6300 net.cpp:165] Memory required for data: 2882637984
I0206 07:36:29.692066  6300 layer_factory.hpp:77] Creating layer fc7_mbox_priorbox
I0206 07:36:29.692077  6300 net.cpp:100] Creating Layer fc7_mbox_priorbox
I0206 07:36:29.692085  6300 net.cpp:434] fc7_mbox_priorbox <- fc7_relu7_0_split_3
I0206 07:36:29.692088  6300 net.cpp:434] fc7_mbox_priorbox <- data_data_0_split_2
I0206 07:36:29.692092  6300 net.cpp:408] fc7_mbox_priorbox -> fc7_mbox_priorbox
I0206 07:36:29.692114  6300 net.cpp:150] Setting up fc7_mbox_priorbox
I0206 07:36:29.692122  6300 net.cpp:157] Top shape: 1 2 24576 (49152)
I0206 07:36:29.692128  6300 net.cpp:165] Memory required for data: 2882834592
I0206 07:36:29.692132  6300 layer_factory.hpp:77] Creating layer conv6_2_mbox_loc
I0206 07:36:29.692145  6300 net.cpp:100] Creating Layer conv6_2_mbox_loc
I0206 07:36:29.692150  6300 net.cpp:434] conv6_2_mbox_loc <- conv6_2_conv6_2_relu_0_split_1
I0206 07:36:29.692157  6300 net.cpp:408] conv6_2_mbox_loc -> conv6_2_mbox_loc
I0206 07:36:29.692742  6300 net.cpp:150] Setting up conv6_2_mbox_loc
I0206 07:36:29.692750  6300 net.cpp:157] Top shape: 4 24 16 16 (24576)
I0206 07:36:29.692754  6300 net.cpp:165] Memory required for data: 2882932896
I0206 07:36:29.692759  6300 layer_factory.hpp:77] Creating layer conv6_2_mbox_loc_perm
I0206 07:36:29.692764  6300 net.cpp:100] Creating Layer conv6_2_mbox_loc_perm
I0206 07:36:29.692768  6300 net.cpp:434] conv6_2_mbox_loc_perm <- conv6_2_mbox_loc
I0206 07:36:29.692773  6300 net.cpp:408] conv6_2_mbox_loc_perm -> conv6_2_mbox_loc_perm
I0206 07:36:29.692840  6300 net.cpp:150] Setting up conv6_2_mbox_loc_perm
I0206 07:36:29.692847  6300 net.cpp:157] Top shape: 4 16 16 24 (24576)
I0206 07:36:29.692852  6300 net.cpp:165] Memory required for data: 2883031200
I0206 07:36:29.692858  6300 layer_factory.hpp:77] Creating layer conv6_2_mbox_loc_flat
I0206 07:36:29.692868  6300 net.cpp:100] Creating Layer conv6_2_mbox_loc_flat
I0206 07:36:29.692875  6300 net.cpp:434] conv6_2_mbox_loc_flat <- conv6_2_mbox_loc_perm
I0206 07:36:29.692883  6300 net.cpp:408] conv6_2_mbox_loc_flat -> conv6_2_mbox_loc_flat
I0206 07:36:29.692903  6300 net.cpp:150] Setting up conv6_2_mbox_loc_flat
I0206 07:36:29.692909  6300 net.cpp:157] Top shape: 4 6144 (24576)
I0206 07:36:29.692924  6300 net.cpp:165] Memory required for data: 2883129504
I0206 07:36:29.692929  6300 layer_factory.hpp:77] Creating layer conv6_2_mbox_conf
I0206 07:36:29.692935  6300 net.cpp:100] Creating Layer conv6_2_mbox_conf
I0206 07:36:29.692940  6300 net.cpp:434] conv6_2_mbox_conf <- conv6_2_conv6_2_relu_0_split_2
I0206 07:36:29.692951  6300 net.cpp:408] conv6_2_mbox_conf -> conv6_2_mbox_conf
I0206 07:36:29.693648  6300 net.cpp:150] Setting up conv6_2_mbox_conf
I0206 07:36:29.693656  6300 net.cpp:157] Top shape: 4 30 16 16 (30720)
I0206 07:36:29.693660  6300 net.cpp:165] Memory required for data: 2883252384
I0206 07:36:29.693663  6300 layer_factory.hpp:77] Creating layer conv6_2_mbox_conf_perm
I0206 07:36:29.693671  6300 net.cpp:100] Creating Layer conv6_2_mbox_conf_perm
I0206 07:36:29.693675  6300 net.cpp:434] conv6_2_mbox_conf_perm <- conv6_2_mbox_conf
I0206 07:36:29.693680  6300 net.cpp:408] conv6_2_mbox_conf_perm -> conv6_2_mbox_conf_perm
I0206 07:36:29.693745  6300 net.cpp:150] Setting up conv6_2_mbox_conf_perm
I0206 07:36:29.693753  6300 net.cpp:157] Top shape: 4 16 16 30 (30720)
I0206 07:36:29.693758  6300 net.cpp:165] Memory required for data: 2883375264
I0206 07:36:29.693763  6300 layer_factory.hpp:77] Creating layer conv6_2_mbox_conf_flat
I0206 07:36:29.693770  6300 net.cpp:100] Creating Layer conv6_2_mbox_conf_flat
I0206 07:36:29.693776  6300 net.cpp:434] conv6_2_mbox_conf_flat <- conv6_2_mbox_conf_perm
I0206 07:36:29.693780  6300 net.cpp:408] conv6_2_mbox_conf_flat -> conv6_2_mbox_conf_flat
I0206 07:36:29.693801  6300 net.cpp:150] Setting up conv6_2_mbox_conf_flat
I0206 07:36:29.693806  6300 net.cpp:157] Top shape: 4 7680 (30720)
I0206 07:36:29.693809  6300 net.cpp:165] Memory required for data: 2883498144
I0206 07:36:29.693811  6300 layer_factory.hpp:77] Creating layer conv6_2_mbox_priorbox
I0206 07:36:29.693816  6300 net.cpp:100] Creating Layer conv6_2_mbox_priorbox
I0206 07:36:29.693820  6300 net.cpp:434] conv6_2_mbox_priorbox <- conv6_2_conv6_2_relu_0_split_3
I0206 07:36:29.693825  6300 net.cpp:434] conv6_2_mbox_priorbox <- data_data_0_split_3
I0206 07:36:29.693828  6300 net.cpp:408] conv6_2_mbox_priorbox -> conv6_2_mbox_priorbox
I0206 07:36:29.693846  6300 net.cpp:150] Setting up conv6_2_mbox_priorbox
I0206 07:36:29.693851  6300 net.cpp:157] Top shape: 1 2 6144 (12288)
I0206 07:36:29.693855  6300 net.cpp:165] Memory required for data: 2883547296
I0206 07:36:29.693857  6300 layer_factory.hpp:77] Creating layer conv7_2_mbox_loc
I0206 07:36:29.693869  6300 net.cpp:100] Creating Layer conv7_2_mbox_loc
I0206 07:36:29.693876  6300 net.cpp:434] conv7_2_mbox_loc <- conv7_2_conv7_2_relu_0_split_1
I0206 07:36:29.693884  6300 net.cpp:408] conv7_2_mbox_loc -> conv7_2_mbox_loc
I0206 07:36:29.694270  6300 net.cpp:150] Setting up conv7_2_mbox_loc
I0206 07:36:29.694278  6300 net.cpp:157] Top shape: 4 24 8 8 (6144)
I0206 07:36:29.694280  6300 net.cpp:165] Memory required for data: 2883571872
I0206 07:36:29.694293  6300 layer_factory.hpp:77] Creating layer conv7_2_mbox_loc_perm
I0206 07:36:29.694301  6300 net.cpp:100] Creating Layer conv7_2_mbox_loc_perm
I0206 07:36:29.694305  6300 net.cpp:434] conv7_2_mbox_loc_perm <- conv7_2_mbox_loc
I0206 07:36:29.694309  6300 net.cpp:408] conv7_2_mbox_loc_perm -> conv7_2_mbox_loc_perm
I0206 07:36:29.694380  6300 net.cpp:150] Setting up conv7_2_mbox_loc_perm
I0206 07:36:29.694388  6300 net.cpp:157] Top shape: 4 8 8 24 (6144)
I0206 07:36:29.694393  6300 net.cpp:165] Memory required for data: 2883596448
I0206 07:36:29.694397  6300 layer_factory.hpp:77] Creating layer conv7_2_mbox_loc_flat
I0206 07:36:29.694406  6300 net.cpp:100] Creating Layer conv7_2_mbox_loc_flat
I0206 07:36:29.694409  6300 net.cpp:434] conv7_2_mbox_loc_flat <- conv7_2_mbox_loc_perm
I0206 07:36:29.694414  6300 net.cpp:408] conv7_2_mbox_loc_flat -> conv7_2_mbox_loc_flat
I0206 07:36:29.694433  6300 net.cpp:150] Setting up conv7_2_mbox_loc_flat
I0206 07:36:29.694438  6300 net.cpp:157] Top shape: 4 1536 (6144)
I0206 07:36:29.694440  6300 net.cpp:165] Memory required for data: 2883621024
I0206 07:36:29.694453  6300 layer_factory.hpp:77] Creating layer conv7_2_mbox_conf
I0206 07:36:29.694461  6300 net.cpp:100] Creating Layer conv7_2_mbox_conf
I0206 07:36:29.694465  6300 net.cpp:434] conv7_2_mbox_conf <- conv7_2_conv7_2_relu_0_split_2
I0206 07:36:29.694469  6300 net.cpp:408] conv7_2_mbox_conf -> conv7_2_mbox_conf
I0206 07:36:29.694895  6300 net.cpp:150] Setting up conv7_2_mbox_conf
I0206 07:36:29.694903  6300 net.cpp:157] Top shape: 4 30 8 8 (7680)
I0206 07:36:29.694905  6300 net.cpp:165] Memory required for data: 2883651744
I0206 07:36:29.694911  6300 layer_factory.hpp:77] Creating layer conv7_2_mbox_conf_perm
I0206 07:36:29.694916  6300 net.cpp:100] Creating Layer conv7_2_mbox_conf_perm
I0206 07:36:29.694921  6300 net.cpp:434] conv7_2_mbox_conf_perm <- conv7_2_mbox_conf
I0206 07:36:29.694926  6300 net.cpp:408] conv7_2_mbox_conf_perm -> conv7_2_mbox_conf_perm
I0206 07:36:29.694993  6300 net.cpp:150] Setting up conv7_2_mbox_conf_perm
I0206 07:36:29.695000  6300 net.cpp:157] Top shape: 4 8 8 30 (7680)
I0206 07:36:29.695005  6300 net.cpp:165] Memory required for data: 2883682464
I0206 07:36:29.695011  6300 layer_factory.hpp:77] Creating layer conv7_2_mbox_conf_flat
I0206 07:36:29.695020  6300 net.cpp:100] Creating Layer conv7_2_mbox_conf_flat
I0206 07:36:29.695027  6300 net.cpp:434] conv7_2_mbox_conf_flat <- conv7_2_mbox_conf_perm
I0206 07:36:29.695034  6300 net.cpp:408] conv7_2_mbox_conf_flat -> conv7_2_mbox_conf_flat
I0206 07:36:29.695055  6300 net.cpp:150] Setting up conv7_2_mbox_conf_flat
I0206 07:36:29.695060  6300 net.cpp:157] Top shape: 4 1920 (7680)
I0206 07:36:29.695061  6300 net.cpp:165] Memory required for data: 2883713184
I0206 07:36:29.695065  6300 layer_factory.hpp:77] Creating layer conv7_2_mbox_priorbox
I0206 07:36:29.695068  6300 net.cpp:100] Creating Layer conv7_2_mbox_priorbox
I0206 07:36:29.695071  6300 net.cpp:434] conv7_2_mbox_priorbox <- conv7_2_conv7_2_relu_0_split_3
I0206 07:36:29.695076  6300 net.cpp:434] conv7_2_mbox_priorbox <- data_data_0_split_4
I0206 07:36:29.695082  6300 net.cpp:408] conv7_2_mbox_priorbox -> conv7_2_mbox_priorbox
I0206 07:36:29.695103  6300 net.cpp:150] Setting up conv7_2_mbox_priorbox
I0206 07:36:29.695112  6300 net.cpp:157] Top shape: 1 2 1536 (3072)
I0206 07:36:29.695117  6300 net.cpp:165] Memory required for data: 2883725472
I0206 07:36:29.695119  6300 layer_factory.hpp:77] Creating layer conv8_2_mbox_loc
I0206 07:36:29.695127  6300 net.cpp:100] Creating Layer conv8_2_mbox_loc
I0206 07:36:29.695132  6300 net.cpp:434] conv8_2_mbox_loc <- conv8_2_conv8_2_relu_0_split_1
I0206 07:36:29.695142  6300 net.cpp:408] conv8_2_mbox_loc -> conv8_2_mbox_loc
I0206 07:36:29.695526  6300 net.cpp:150] Setting up conv8_2_mbox_loc
I0206 07:36:29.695534  6300 net.cpp:157] Top shape: 4 24 4 4 (1536)
I0206 07:36:29.695538  6300 net.cpp:165] Memory required for data: 2883731616
I0206 07:36:29.695541  6300 layer_factory.hpp:77] Creating layer conv8_2_mbox_loc_perm
I0206 07:36:29.695547  6300 net.cpp:100] Creating Layer conv8_2_mbox_loc_perm
I0206 07:36:29.695551  6300 net.cpp:434] conv8_2_mbox_loc_perm <- conv8_2_mbox_loc
I0206 07:36:29.695557  6300 net.cpp:408] conv8_2_mbox_loc_perm -> conv8_2_mbox_loc_perm
I0206 07:36:29.695626  6300 net.cpp:150] Setting up conv8_2_mbox_loc_perm
I0206 07:36:29.695632  6300 net.cpp:157] Top shape: 4 4 4 24 (1536)
I0206 07:36:29.695637  6300 net.cpp:165] Memory required for data: 2883737760
I0206 07:36:29.695643  6300 layer_factory.hpp:77] Creating layer conv8_2_mbox_loc_flat
I0206 07:36:29.695652  6300 net.cpp:100] Creating Layer conv8_2_mbox_loc_flat
I0206 07:36:29.695658  6300 net.cpp:434] conv8_2_mbox_loc_flat <- conv8_2_mbox_loc_perm
I0206 07:36:29.695665  6300 net.cpp:408] conv8_2_mbox_loc_flat -> conv8_2_mbox_loc_flat
I0206 07:36:29.695685  6300 net.cpp:150] Setting up conv8_2_mbox_loc_flat
I0206 07:36:29.695691  6300 net.cpp:157] Top shape: 4 384 (1536)
I0206 07:36:29.695694  6300 net.cpp:165] Memory required for data: 2883743904
I0206 07:36:29.695698  6300 layer_factory.hpp:77] Creating layer conv8_2_mbox_conf
I0206 07:36:29.695715  6300 net.cpp:100] Creating Layer conv8_2_mbox_conf
I0206 07:36:29.695720  6300 net.cpp:434] conv8_2_mbox_conf <- conv8_2_conv8_2_relu_0_split_2
I0206 07:36:29.695724  6300 net.cpp:408] conv8_2_mbox_conf -> conv8_2_mbox_conf
I0206 07:36:29.696171  6300 net.cpp:150] Setting up conv8_2_mbox_conf
I0206 07:36:29.696178  6300 net.cpp:157] Top shape: 4 30 4 4 (1920)
I0206 07:36:29.696182  6300 net.cpp:165] Memory required for data: 2883751584
I0206 07:36:29.696185  6300 layer_factory.hpp:77] Creating layer conv8_2_mbox_conf_perm
I0206 07:36:29.696193  6300 net.cpp:100] Creating Layer conv8_2_mbox_conf_perm
I0206 07:36:29.696198  6300 net.cpp:434] conv8_2_mbox_conf_perm <- conv8_2_mbox_conf
I0206 07:36:29.696202  6300 net.cpp:408] conv8_2_mbox_conf_perm -> conv8_2_mbox_conf_perm
I0206 07:36:29.696272  6300 net.cpp:150] Setting up conv8_2_mbox_conf_perm
I0206 07:36:29.696279  6300 net.cpp:157] Top shape: 4 4 4 30 (1920)
I0206 07:36:29.696280  6300 net.cpp:165] Memory required for data: 2883759264
I0206 07:36:29.696282  6300 layer_factory.hpp:77] Creating layer conv8_2_mbox_conf_flat
I0206 07:36:29.696290  6300 net.cpp:100] Creating Layer conv8_2_mbox_conf_flat
I0206 07:36:29.696297  6300 net.cpp:434] conv8_2_mbox_conf_flat <- conv8_2_mbox_conf_perm
I0206 07:36:29.696305  6300 net.cpp:408] conv8_2_mbox_conf_flat -> conv8_2_mbox_conf_flat
I0206 07:36:29.696329  6300 net.cpp:150] Setting up conv8_2_mbox_conf_flat
I0206 07:36:29.696336  6300 net.cpp:157] Top shape: 4 480 (1920)
I0206 07:36:29.696337  6300 net.cpp:165] Memory required for data: 2883766944
I0206 07:36:29.696339  6300 layer_factory.hpp:77] Creating layer conv8_2_mbox_priorbox
I0206 07:36:29.696346  6300 net.cpp:100] Creating Layer conv8_2_mbox_priorbox
I0206 07:36:29.696348  6300 net.cpp:434] conv8_2_mbox_priorbox <- conv8_2_conv8_2_relu_0_split_3
I0206 07:36:29.696352  6300 net.cpp:434] conv8_2_mbox_priorbox <- data_data_0_split_5
I0206 07:36:29.696357  6300 net.cpp:408] conv8_2_mbox_priorbox -> conv8_2_mbox_priorbox
I0206 07:36:29.696374  6300 net.cpp:150] Setting up conv8_2_mbox_priorbox
I0206 07:36:29.696379  6300 net.cpp:157] Top shape: 1 2 384 (768)
I0206 07:36:29.696382  6300 net.cpp:165] Memory required for data: 2883770016
I0206 07:36:29.696383  6300 layer_factory.hpp:77] Creating layer conv9_2_mbox_loc
I0206 07:36:29.696391  6300 net.cpp:100] Creating Layer conv9_2_mbox_loc
I0206 07:36:29.696398  6300 net.cpp:434] conv9_2_mbox_loc <- conv9_2_conv9_2_relu_0_split_1
I0206 07:36:29.696408  6300 net.cpp:408] conv9_2_mbox_loc -> conv9_2_mbox_loc
I0206 07:36:29.696724  6300 net.cpp:150] Setting up conv9_2_mbox_loc
I0206 07:36:29.696732  6300 net.cpp:157] Top shape: 4 16 2 2 (256)
I0206 07:36:29.696734  6300 net.cpp:165] Memory required for data: 2883771040
I0206 07:36:29.696738  6300 layer_factory.hpp:77] Creating layer conv9_2_mbox_loc_perm
I0206 07:36:29.696744  6300 net.cpp:100] Creating Layer conv9_2_mbox_loc_perm
I0206 07:36:29.696748  6300 net.cpp:434] conv9_2_mbox_loc_perm <- conv9_2_mbox_loc
I0206 07:36:29.696753  6300 net.cpp:408] conv9_2_mbox_loc_perm -> conv9_2_mbox_loc_perm
I0206 07:36:29.696820  6300 net.cpp:150] Setting up conv9_2_mbox_loc_perm
I0206 07:36:29.696826  6300 net.cpp:157] Top shape: 4 2 2 16 (256)
I0206 07:36:29.696828  6300 net.cpp:165] Memory required for data: 2883772064
I0206 07:36:29.696830  6300 layer_factory.hpp:77] Creating layer conv9_2_mbox_loc_flat
I0206 07:36:29.696838  6300 net.cpp:100] Creating Layer conv9_2_mbox_loc_flat
I0206 07:36:29.696844  6300 net.cpp:434] conv9_2_mbox_loc_flat <- conv9_2_mbox_loc_perm
I0206 07:36:29.696854  6300 net.cpp:408] conv9_2_mbox_loc_flat -> conv9_2_mbox_loc_flat
I0206 07:36:29.696876  6300 net.cpp:150] Setting up conv9_2_mbox_loc_flat
I0206 07:36:29.696880  6300 net.cpp:157] Top shape: 4 64 (256)
I0206 07:36:29.696883  6300 net.cpp:165] Memory required for data: 2883773088
I0206 07:36:29.696885  6300 layer_factory.hpp:77] Creating layer conv9_2_mbox_conf
I0206 07:36:29.696893  6300 net.cpp:100] Creating Layer conv9_2_mbox_conf
I0206 07:36:29.696897  6300 net.cpp:434] conv9_2_mbox_conf <- conv9_2_conv9_2_relu_0_split_2
I0206 07:36:29.696913  6300 net.cpp:408] conv9_2_mbox_conf -> conv9_2_mbox_conf
I0206 07:36:29.697970  6300 net.cpp:150] Setting up conv9_2_mbox_conf
I0206 07:36:29.697983  6300 net.cpp:157] Top shape: 4 20 2 2 (320)
I0206 07:36:29.697985  6300 net.cpp:165] Memory required for data: 2883774368
I0206 07:36:29.697991  6300 layer_factory.hpp:77] Creating layer conv9_2_mbox_conf_perm
I0206 07:36:29.697998  6300 net.cpp:100] Creating Layer conv9_2_mbox_conf_perm
I0206 07:36:29.698001  6300 net.cpp:434] conv9_2_mbox_conf_perm <- conv9_2_mbox_conf
I0206 07:36:29.698007  6300 net.cpp:408] conv9_2_mbox_conf_perm -> conv9_2_mbox_conf_perm
I0206 07:36:29.698079  6300 net.cpp:150] Setting up conv9_2_mbox_conf_perm
I0206 07:36:29.698089  6300 net.cpp:157] Top shape: 4 2 2 20 (320)
I0206 07:36:29.698096  6300 net.cpp:165] Memory required for data: 2883775648
I0206 07:36:29.698101  6300 layer_factory.hpp:77] Creating layer conv9_2_mbox_conf_flat
I0206 07:36:29.698109  6300 net.cpp:100] Creating Layer conv9_2_mbox_conf_flat
I0206 07:36:29.698114  6300 net.cpp:434] conv9_2_mbox_conf_flat <- conv9_2_mbox_conf_perm
I0206 07:36:29.698119  6300 net.cpp:408] conv9_2_mbox_conf_flat -> conv9_2_mbox_conf_flat
I0206 07:36:29.698140  6300 net.cpp:150] Setting up conv9_2_mbox_conf_flat
I0206 07:36:29.698146  6300 net.cpp:157] Top shape: 4 80 (320)
I0206 07:36:29.698148  6300 net.cpp:165] Memory required for data: 2883776928
I0206 07:36:29.698150  6300 layer_factory.hpp:77] Creating layer conv9_2_mbox_priorbox
I0206 07:36:29.698156  6300 net.cpp:100] Creating Layer conv9_2_mbox_priorbox
I0206 07:36:29.698159  6300 net.cpp:434] conv9_2_mbox_priorbox <- conv9_2_conv9_2_relu_0_split_3
I0206 07:36:29.698163  6300 net.cpp:434] conv9_2_mbox_priorbox <- data_data_0_split_6
I0206 07:36:29.698168  6300 net.cpp:408] conv9_2_mbox_priorbox -> conv9_2_mbox_priorbox
I0206 07:36:29.698189  6300 net.cpp:150] Setting up conv9_2_mbox_priorbox
I0206 07:36:29.698197  6300 net.cpp:157] Top shape: 1 2 64 (128)
I0206 07:36:29.698204  6300 net.cpp:165] Memory required for data: 2883777440
I0206 07:36:29.698207  6300 layer_factory.hpp:77] Creating layer conv10_2_mbox_loc
I0206 07:36:29.698220  6300 net.cpp:100] Creating Layer conv10_2_mbox_loc
I0206 07:36:29.698225  6300 net.cpp:434] conv10_2_mbox_loc <- conv10_2_conv10_2_relu_0_split_0
I0206 07:36:29.698231  6300 net.cpp:408] conv10_2_mbox_loc -> conv10_2_mbox_loc
I0206 07:36:29.698539  6300 net.cpp:150] Setting up conv10_2_mbox_loc
I0206 07:36:29.698547  6300 net.cpp:157] Top shape: 4 16 1 1 (64)
I0206 07:36:29.698549  6300 net.cpp:165] Memory required for data: 2883777696
I0206 07:36:29.698554  6300 layer_factory.hpp:77] Creating layer conv10_2_mbox_loc_perm
I0206 07:36:29.698560  6300 net.cpp:100] Creating Layer conv10_2_mbox_loc_perm
I0206 07:36:29.698565  6300 net.cpp:434] conv10_2_mbox_loc_perm <- conv10_2_mbox_loc
I0206 07:36:29.698570  6300 net.cpp:408] conv10_2_mbox_loc_perm -> conv10_2_mbox_loc_perm
I0206 07:36:29.698643  6300 net.cpp:150] Setting up conv10_2_mbox_loc_perm
I0206 07:36:29.698652  6300 net.cpp:157] Top shape: 4 1 1 16 (64)
I0206 07:36:29.698658  6300 net.cpp:165] Memory required for data: 2883777952
I0206 07:36:29.698664  6300 layer_factory.hpp:77] Creating layer conv10_2_mbox_loc_flat
I0206 07:36:29.698668  6300 net.cpp:100] Creating Layer conv10_2_mbox_loc_flat
I0206 07:36:29.698673  6300 net.cpp:434] conv10_2_mbox_loc_flat <- conv10_2_mbox_loc_perm
I0206 07:36:29.698678  6300 net.cpp:408] conv10_2_mbox_loc_flat -> conv10_2_mbox_loc_flat
I0206 07:36:29.698698  6300 net.cpp:150] Setting up conv10_2_mbox_loc_flat
I0206 07:36:29.698702  6300 net.cpp:157] Top shape: 4 16 (64)
I0206 07:36:29.698704  6300 net.cpp:165] Memory required for data: 2883778208
I0206 07:36:29.698707  6300 layer_factory.hpp:77] Creating layer conv10_2_mbox_conf
I0206 07:36:29.698714  6300 net.cpp:100] Creating Layer conv10_2_mbox_conf
I0206 07:36:29.698719  6300 net.cpp:434] conv10_2_mbox_conf <- conv10_2_conv10_2_relu_0_split_1
I0206 07:36:29.698722  6300 net.cpp:408] conv10_2_mbox_conf -> conv10_2_mbox_conf
I0206 07:36:29.699074  6300 net.cpp:150] Setting up conv10_2_mbox_conf
I0206 07:36:29.699080  6300 net.cpp:157] Top shape: 4 20 1 1 (80)
I0206 07:36:29.699084  6300 net.cpp:165] Memory required for data: 2883778528
I0206 07:36:29.699087  6300 layer_factory.hpp:77] Creating layer conv10_2_mbox_conf_perm
I0206 07:36:29.699093  6300 net.cpp:100] Creating Layer conv10_2_mbox_conf_perm
I0206 07:36:29.699096  6300 net.cpp:434] conv10_2_mbox_conf_perm <- conv10_2_mbox_conf
I0206 07:36:29.699100  6300 net.cpp:408] conv10_2_mbox_conf_perm -> conv10_2_mbox_conf_perm
I0206 07:36:29.699174  6300 net.cpp:150] Setting up conv10_2_mbox_conf_perm
I0206 07:36:29.699183  6300 net.cpp:157] Top shape: 4 1 1 20 (80)
I0206 07:36:29.699188  6300 net.cpp:165] Memory required for data: 2883778848
I0206 07:36:29.699193  6300 layer_factory.hpp:77] Creating layer conv10_2_mbox_conf_flat
I0206 07:36:29.699203  6300 net.cpp:100] Creating Layer conv10_2_mbox_conf_flat
I0206 07:36:29.699208  6300 net.cpp:434] conv10_2_mbox_conf_flat <- conv10_2_mbox_conf_perm
I0206 07:36:29.699213  6300 net.cpp:408] conv10_2_mbox_conf_flat -> conv10_2_mbox_conf_flat
I0206 07:36:29.699234  6300 net.cpp:150] Setting up conv10_2_mbox_conf_flat
I0206 07:36:29.699239  6300 net.cpp:157] Top shape: 4 20 (80)
I0206 07:36:29.699241  6300 net.cpp:165] Memory required for data: 2883779168
I0206 07:36:29.699245  6300 layer_factory.hpp:77] Creating layer conv10_2_mbox_priorbox
I0206 07:36:29.699251  6300 net.cpp:100] Creating Layer conv10_2_mbox_priorbox
I0206 07:36:29.699254  6300 net.cpp:434] conv10_2_mbox_priorbox <- conv10_2_conv10_2_relu_0_split_2
I0206 07:36:29.699257  6300 net.cpp:434] conv10_2_mbox_priorbox <- data_data_0_split_7
I0206 07:36:29.699261  6300 net.cpp:408] conv10_2_mbox_priorbox -> conv10_2_mbox_priorbox
I0206 07:36:29.699282  6300 net.cpp:150] Setting up conv10_2_mbox_priorbox
I0206 07:36:29.699291  6300 net.cpp:157] Top shape: 1 2 16 (32)
I0206 07:36:29.699296  6300 net.cpp:165] Memory required for data: 2883779296
I0206 07:36:29.699303  6300 layer_factory.hpp:77] Creating layer mbox_loc
I0206 07:36:29.699311  6300 net.cpp:100] Creating Layer mbox_loc
I0206 07:36:29.699314  6300 net.cpp:434] mbox_loc <- conv4_3_norm_mbox_loc_flat
I0206 07:36:29.699318  6300 net.cpp:434] mbox_loc <- fc7_mbox_loc_flat
I0206 07:36:29.699323  6300 net.cpp:434] mbox_loc <- conv6_2_mbox_loc_flat
I0206 07:36:29.699326  6300 net.cpp:434] mbox_loc <- conv7_2_mbox_loc_flat
I0206 07:36:29.699329  6300 net.cpp:434] mbox_loc <- conv8_2_mbox_loc_flat
I0206 07:36:29.699334  6300 net.cpp:434] mbox_loc <- conv9_2_mbox_loc_flat
I0206 07:36:29.699337  6300 net.cpp:434] mbox_loc <- conv10_2_mbox_loc_flat
I0206 07:36:29.699342  6300 net.cpp:408] mbox_loc -> mbox_loc
I0206 07:36:29.699365  6300 net.cpp:150] Setting up mbox_loc
I0206 07:36:29.699370  6300 net.cpp:157] Top shape: 4 98256 (393024)
I0206 07:36:29.699373  6300 net.cpp:165] Memory required for data: 2885351392
I0206 07:36:29.699374  6300 layer_factory.hpp:77] Creating layer mbox_conf
I0206 07:36:29.699381  6300 net.cpp:100] Creating Layer mbox_conf
I0206 07:36:29.699388  6300 net.cpp:434] mbox_conf <- conv4_3_norm_mbox_conf_flat
I0206 07:36:29.699395  6300 net.cpp:434] mbox_conf <- fc7_mbox_conf_flat
I0206 07:36:29.699404  6300 net.cpp:434] mbox_conf <- conv6_2_mbox_conf_flat
I0206 07:36:29.699407  6300 net.cpp:434] mbox_conf <- conv7_2_mbox_conf_flat
I0206 07:36:29.699410  6300 net.cpp:434] mbox_conf <- conv8_2_mbox_conf_flat
I0206 07:36:29.699414  6300 net.cpp:434] mbox_conf <- conv9_2_mbox_conf_flat
I0206 07:36:29.699416  6300 net.cpp:434] mbox_conf <- conv10_2_mbox_conf_flat
I0206 07:36:29.699421  6300 net.cpp:408] mbox_conf -> mbox_conf
I0206 07:36:29.699441  6300 net.cpp:150] Setting up mbox_conf
I0206 07:36:29.699446  6300 net.cpp:157] Top shape: 4 122820 (491280)
I0206 07:36:29.699448  6300 net.cpp:165] Memory required for data: 2887316512
I0206 07:36:29.699450  6300 layer_factory.hpp:77] Creating layer mbox_priorbox
I0206 07:36:29.699455  6300 net.cpp:100] Creating Layer mbox_priorbox
I0206 07:36:29.699457  6300 net.cpp:434] mbox_priorbox <- conv4_3_norm_mbox_priorbox
I0206 07:36:29.699471  6300 net.cpp:434] mbox_priorbox <- fc7_mbox_priorbox
I0206 07:36:29.699476  6300 net.cpp:434] mbox_priorbox <- conv6_2_mbox_priorbox
I0206 07:36:29.699478  6300 net.cpp:434] mbox_priorbox <- conv7_2_mbox_priorbox
I0206 07:36:29.699483  6300 net.cpp:434] mbox_priorbox <- conv8_2_mbox_priorbox
I0206 07:36:29.699488  6300 net.cpp:434] mbox_priorbox <- conv9_2_mbox_priorbox
I0206 07:36:29.699494  6300 net.cpp:434] mbox_priorbox <- conv10_2_mbox_priorbox
I0206 07:36:29.699501  6300 net.cpp:408] mbox_priorbox -> mbox_priorbox
I0206 07:36:29.699527  6300 net.cpp:150] Setting up mbox_priorbox
I0206 07:36:29.699532  6300 net.cpp:157] Top shape: 1 2 98256 (196512)
I0206 07:36:29.699534  6300 net.cpp:165] Memory required for data: 2888102560
I0206 07:36:29.699537  6300 layer_factory.hpp:77] Creating layer mbox_loss
I0206 07:36:29.699548  6300 net.cpp:100] Creating Layer mbox_loss
I0206 07:36:29.699554  6300 net.cpp:434] mbox_loss <- mbox_loc
I0206 07:36:29.699563  6300 net.cpp:434] mbox_loss <- mbox_conf
I0206 07:36:29.699568  6300 net.cpp:434] mbox_loss <- mbox_priorbox
…
}
layer {
  name: "data"
  type: "AnnotatedData"
  top: "data"
  top: "label"
  include {
    phase: TEST
  }
  transform_param {
    mean_value: 104
    mean_value: 117
    mean_value: 123
    resize_param {
      prob: 1
      resize_mode: WARP
      height: 512
      width: 512
      interp_mode: LINEAR
    }
  }
  data_param {
    source: "data/actions/actions_0203/lmdb/actions_trainval_lmdb"
    batch_size: 1
    backend: LMDB
  }
  annotated_data_param {
    batch_sampler {
    }
    label_map_file: "data/actions/labelmap_voc.prototxt"
  }
}
layer {
  name: "conv1_1"
  type: "Convolution"
  bottom: "data"
  top: "conv1_1"
  param {
    lr_mult: 1
    decay_mult: 1
  }
  param {
    lr_mult: 2
    decay_mult: 0
  }
  convolution_param {
    num_output: 64
    pad: 1
    kernel_size: 3
    weight_filler {
      type: "xavier"
    }
    bias_filler {
      type: "constant"
      value: 0
    }
  }
}
layer {
  name: "relu1_1"
  type: "ReLU"
  bottom: "conv1_1"
  top: "conv1_1"
}
layer {
  name: "conv1_2"
  type: "Convolution"
  bottom: "conv1_1"
  top: "conv1_2"
  param {
    lr_mult: 1
    decay_mult: 1
  }
  param {
    lr_mult: 2
    decay_mult: 0
  }
  convolution_param {
    num_output: 64
    pad: 1
    kernel_size: 3
    weight_filler {
      type: "xavier"
    }
    bias_filler {
      type: "constant"
      value: 0
    }
  }
}
layer {
  name: "relu1_2"
  type: "ReLU"
  bottom: "conv1_2"
  top: "conv1_2"
}
layer {
  name: "pool1"
  type: "Pooling"
  bottom: "conv1_2"
  top: "pool1"
  pooling_param {
    pool: MAX
    kernel_size: 2
    stride: 2
  }
}
layer {
  name: "conv2_1"
  type: "Convolution"
  bottom: "pool1"
  top: "conv2_1"
  param {
    lr_mult: 1
    decay_mult: 1
  }
  param {
    lr_mult: 2
    decay_mult: 0
  }
  convolution_param {
    num_output: 128
    pad: 1
    kernel_size: 3
    weight_filler {
      type: "xavier"
    }
    bias_filler {
      type: "constant"
      value: 0
    }
  }
}
layer {
  name: "relu2_1"
  type: "ReLU"
  bottom: "conv2_1"
  top: "conv2_1"
}
layer {
  name: "conv2_2"
  type: "Convolution"
  bottom: "conv2_1"
  top: "conv2_2"
  param {
    lr_mult: 1
    decay_mult: 1
  }
  param {
    lr_mult: 2
    decay_mult: 0
  }
  convolution_param {
    num_output: 128
    pad: 1
    kernel_size: 3
    weight_filler {
      type: "xavier"
    }
    bias_filler {
      type: "constant"
      value: 0
    }
  }
}
layer {
  name: "relu2_2"
  type: "ReLU"
  bottom: "conv2_2"
  top: "conv2_2"
}
layer {
  name: "pool2"
  type: "Pooling"
  bottom: "conv2_2"
  top: "pool2"
  pooling_param {
    pool: MAX
    kernel_size: 2
    stride: 2
  }
}
layer {
  name: "conv3_1"
  type: "Convolution"
  bottom: "pool2"
  top: "conv3_1"
  param {
    lr_mult: 1
    decay_mult: 1
  }
  param {
    lr_mult: 2
    decay_mult: 0
  }
  convolution_param {
    num_output: 256
    pad: 1
    kernel_size: 3
    weight_filler {
      type: "xavier"
    }
    bias_filler {
      type: "constant"
      value: 0
    }
  }
}
layer {
  name: "relu3_1"
  type: "ReLU"
  bottom: "conv3_1"
  top: "conv3_1"
}
layer {
  name: "conv3_2"
  type: "Convolution"
  bottom: "conv3_1"
  top: "conv3_2"
  param {
    lr_mult: 1
    decay_mult: 1
  }
  param {
    lr_mult: 2
    decay_mult: 0
  }
  convolution_param {
    num_output: 256
    pad: 1
    kernel_size: 3
    weight_filler {
      type: "xavier"
    }
    bias_filler {
      type: "constant"
      value: 0
    }
  }
}
layer {
  name: "relu3_2"
  type: "ReLU"
  bottom: "conv3_2"
  top: "conv3_2"
}
layer {
  name: "conv3_3"
  type: "Convolution"
  bottom: "conv3_2"
  top: "conv3_3"
  param {
    lr_mult: 1
    decay_mult: 1
  }
  param {
    lr_mult: 2
    decay_mult: 0
  }
  convolution_param {
    num_output: 256
    pad: 1
    kernel_size: 3
    weight_filler {
      type: "xavier"
    }
    bias_filler {
      type: "constant"
      value: 0
    }
  }
}
layer {
  name: "relu3_3"
  type: "ReLU"
  bottom: "conv3_3"
  top: "conv3_3"
}
layer {
  name: "pool3"
  type: "Pooling"
  bottom: "conv3_3"
  top: "pool3"
  pooling_param {
    pool: MAX
    kernel_size: 2
    stride: 2
  }
}
layer {
  name: "conv4_1"
  type: "Convolution"
  bottom: "pool3"
  top: "conv4_1"
  param {
    lr_mult: 1
    decay_mult: 1
  }
  param {
    lr_mult: 2
    decay_mult: 0
  }
  convolution_param {
    num_output: 512
    pad: 1
    kernel_size: 3
    weight_filler {
      type: "xavier"
    }
    bias_filler {
      type: "constant"
      value: 0
    }
  }
}
layer {
  name: "relu4_1"
  type: "ReLU"
  bottom: "conv4_1"
  top: "conv4_1"
}
layer {
  name: "conv4_2"
  type: "Convolution"
  bottom: "conv4_1"
  top: "conv4_2"
  param {
    lr_mult: 1
    decay_mult: 1
  }
  param {
    lr_mult: 2
    decay_mult: 0
  }
  convolution_param {
    num_output: 512
    pad: 1
    kernel_size: 3
    weight_filler {
      type: "xavier"
    }
    bias_filler {
      type: "constant"
      value: 0
    }
  }
}
layer {
  name: "relu4_2"
  type: "ReLU"
  bottom: "conv4_2"
  top: "conv4_2"
}
layer {
  name: "conv4_3"
  type: "Convolution"
  bottom: "conv4_2"
  top: "conv4_3"
  param {
    lr_mult: 1
    decay_mult: 1
  }
  param {
    lr_mult: 2
    decay_mult: 0
  }
  convolution_param {
    num_output: 512
    pad: 1
    kernel_size: 3
    weight_filler {
      type: "xavier"
    }
    bias_filler {
      type: "constant"
      value: 0
    }
  }
}
layer {
  name: "relu4_3"
  type: "ReLU"
  bottom: "conv4_3"
  top: "conv4_3"
}
layer {
  name: "pool4"
  type: "Pooling"
  bottom: "conv4_3"
  top: "pool4"
  pooling_param {
    pool: MAX
    kernel_size: 2
    stride: 2
  }
}
layer {
  name: "conv5_1"
  type: "Convolution"
  bottom: "pool4"
  top: "conv5_1"
  param {
    lr_mult: 1
    decay_mult: 1
  }
  param {
    lr_mult: 2
    decay_mult: 0
  }
  convolution_param {
    num_output: 512
    pad: 1
    kernel_size: 3
    weight_filler {
      type: "xavier"
    }
    bias_filler {
      type: "constant"
      value: 0
    }
    dilation: 1
  }
}
layer {
  name: "relu5_1"
  type: "ReLU"
  bottom: "conv5_1"
  top: "conv5_1"
}
layer {
  name: "conv5_2"
  type: "Convolution"
  bottom: "conv5_1"
  top: "conv5_2"
  param {
    lr_mult: 1
    decay_mult: 1
  }
  param {
    lr_mult: 2
    decay_mult: 0
  }
  convolution_param {
    num_output: 512
    pad: 1
    kernel_size: 3
    weight_filler {
      type: "xavier"
    }
    bias_filler {
      type: "constant"
      value: 0
    }
    dilation: 1
  }
}
layer {
  name: "relu5_2"
  type: "ReLU"
  bottom: "conv5_2"
  top: "conv5_2"
}
layer {
  name: "conv5_3"
  type: "Convolution"
  bottom: "conv5_2"
  top: "conv5_3"
  param {
    lr_mult: 1
    decay_mult: 1
  }
  param {
    lr_mult: 2
    decay_mult: 0
  }
  convolution_param {
    num_output: 512
    pad: 1
    kernel_size: 3
    weight_filler {
      type: "xavier"
    }
    bias_filler {
      type: "constant"
      value: 0
    }
    dilation: 1
  }
}
layer {
  name: "relu5_3"
  type: "ReLU"
  bottom: "conv5_3"
  top: "conv5_3"
}
layer {
  name: "pool5"
  type: "Pooling"
  bottom: "conv5_3"
  top: "pool5"
  pooling_param {
    pool: MAX
    kernel_size: 3
    stride: 1
    pad: 1
  }
}
layer {
  name: "fc6"
  type: "Convolution"
  bottom: "pool5"
  top: "fc6"
  param {
    lr_mult: 1
    decay_mult: 1
  }
  param {
    lr_mult: 2
    decay_mult: 0
  }
  convolution_param {
    num_output: 1024
    pad: 6
    kernel_size: 3
    weight_filler {
      type: "xavier"
    }
    bias_filler {
      type: "constant"
      value: 0
    }
    dilation: 6
  }
}
layer {
  name: "relu6"
  type: "ReLU"
  bottom: "fc6"
  top: "fc6"
}
layer {
  name: "fc7"
  type: "Convolution"
  bottom: "fc6"
  top: "fc7"
  param {
    lr_mult: 1
    decay_mult: 1
  }
  param {
    lr_mult: 2
    decay_mult: 0
  }
  convolution_param {
    num_output: 1024
    kernel_size: 1
    weight_filler {
      type: "xavier"
    }
    bias_filler {
      type: "constant"
      value: 0
    }
  }
}
layer {
  name: "relu7"
  type: "ReLU"
  bottom: "fc7"
  top: "fc7"
}
layer {
  name: "conv6_1"
  type: "Convolution"
  bottom: "fc7"
  top: "conv6_1"
  param {
    lr_mult: 1
    decay_mult: 1
  }
  param {
    lr_mult: 2
    decay_mult: 0
  }
  convolution_param {
    num_output: 256
    pad: 0
    kernel_size: 1
    stride: 1
    weight_filler {
      type: "xavier"
    }
    bias_filler {
      type: "constant"
      value: 0
    }
  }
}
layer {
  name: "conv6_1_relu"
  type: "ReLU"
  bottom: "conv6_1"
  top: "conv6_1"
}
layer {
  name: "conv6_2"
  type: "Convolution"
  bottom: "conv6_1"
  top: "conv6_2"
  param {
    lr_mult: 1
    decay_mult: 1
  }
  param {
    lr_mult: 2
    decay_mult: 0
  }
  convolution_param {
    num_output: 512
    pad: 1
    kernel_size: 3
    stride: 2
    weight_filler {
      type: "xavier"
    }
    bias_filler {
      type: "constant"
      value: 0
    }
  }
}
layer {
  name: "conv6_2_relu"
  type: "ReLU"
  bottom: "conv6_2"
  top: "conv6_2"
}
layer {
  name: "conv7_1"
  type: "Convolution"
  bottom: "conv6_2"
  top: "conv7_1"
  param {
    lr_mult: 1
    decay_mult: 1
  }
  param {
    lr_mult: 2
    decay_mult: 0
  }
  convolution_param {
    num_output: 128
    pad: 0
    kernel_size: 1
    stride: 1
    weight_filler {
      type: "xavier"
    }
    bias_filler {
      type: "constant"
      value: 0
    }
  }
}
layer {
  name: "conv7_1_relu"
  type: "ReLU"
  bottom: "conv7_1"
  top: "conv7_1"
}
layer {
  name: "conv7_2"
  type: "Convolution"
  bottom: "conv7_1"
  top: "conv7_2"
  param {
    lr_mult: 1
    decay_mult: 1
  }
  param {
    lr_mult: 2
    decay_mult: 0
  }
  convolution_param {
    num_output: 256
    pad: 1
    kernel_size: 3
    stride: 2
    weight_filler {
      type: "xavier"
    }
    bias_filler {
      type: "constant"
      value: 0
    }
  }
}
layer {
  name: "conv7_2_relu"
  type: "ReLU"
  bottom: "conv7_2"
  top: "conv7_2"
}
layer {
  name: "conv8_1"
  type: "Convolution"
  bottom: "conv7_2"
  top: "conv8_1"
  param {
    lr_mult: 1
    decay_mult: 1
  }
  param {
    lr_mult: 2
    decay_mult: 0
  }
  convolution_param {
    num_output: 128
    pad: 0
    kernel_size: 1
    stride: 1
    weight_filler {
      type: "xavier"
    }
    bias_filler {
      type: "constant"
      value: 0
    }
  }
}
layer {
  name: "conv8_1_relu"
  type: "ReLU"
  bottom: "conv8_1"
  top: "conv8_1"
}
layer {
  name: "conv8_2"
  type: "Convolution"
  bottom: "conv8_1"
  top: "conv8_2"
  param {
    lr_mult: 1
    decay_mult: 1
  }
  param {
    lr_mult: 2
    decay_mult: 0
  }
  convolution_param {
    num_output: 256
    pad: 1
    kernel_size: 3
    stride: 2
    weight_filler {
      type: "xavier"
    }
    bias_filler {
      type: "constant"
      value: 0
    }
  }
}
layer {
  name: "conv8_2_relu"
  type: "ReLU"
  bottom: "conv8_2"
  top: "conv8_2"
}
layer {
  name: "conv9_1"
  type: "Convolution"
  bottom: "conv8_2"
  top: "conv9_1"
  param {
    lr_mult: 1
    decay_mult: 1
  }
  param {
    lr_mult: 2
    decay_mult: 0
  }
  convolution_param {
    num_output: 128
    pad: 0
    kernel_size: 1
    stride: 1
    weight_filler {
      type: "xavier"
    }
    bias_filler {
      type: "constant"
      value: 0
    }
  }
}
layer {
  name: "conv9_1_relu"
  type: "ReLU"
  bottom: "conv9_1"
  top: "conv9_1"
}
layer {
  name: "conv9_2"
  type: "Convolution"
  bottom: "conv9_1"
  top: "conv9_2"
  param {
    lr_mult: 1
    decay_mult: 1
  }
  param {
    lr_mult: 2
    decay_mult: 0
  }
  convolution_param {
    num_output: 256
    pad: 1
    kernel_size: 3
    stride: 2
    weight_filler {
      type: "xavier"
    }
    bias_filler {
      type: "constant"
      value: 0
    }
  }
}
layer {
  name: "conv9_2_relu"
  type: "ReLU"
  bottom: "conv9_2"
  top: "conv9_2"
}
layer {
  name: "conv10_1"
  type: "Convolution"
  bottom: "conv9_2"
  top: "conv10_1"
  param {
    lr_mult: 1
    decay_mult: 1
  }
  param {
    lr_mult: 2
    decay_mult: 0
  }
  convolution_param {
    num_output: 128
    pad: 0
    kernel_size: 1
    stride: 1
    weight_filler {
      type: "xavier"
    }
    bias_filler {
      type: "constant"
      value: 0
    }
  }
}
layer {
  name: "conv10_1_relu"
  type: "ReLU"
  bottom: "conv10_1"
  top: "conv10_1"
}
layer {
  name: "conv10_2"
  type: "Convolution"
  bottom: "conv10_1"
  top: "conv10_2"
  param {
    lr_mult: 1
    decay_mult: 1
  }
  param {
    lr_mult: 2
    decay_mult: 0
  }
  convolution_param {
    num_output: 256
    pad: 1
    kernel_size: 4
    stride: 1
    weight_filler {
      type: "xavier"
    }
    bias_filler {
      type: "constant"
      value: 0
    }
  }
}
layer {
  name: "conv10_2_relu"
  type: "ReLU"
  bottom: "conv10_2"
  top: "conv10_2"
}
layer {
  name: "conv4_3_norm"
  type: "Normalize"
  bottom: "conv4_3"
  top: "conv4_3_norm"
  norm_param {
    across_spatial: false
    scale_filler {
      type: "constant"
      value: 20
    }
    channel_shared: false
  }
}
layer {
  name: "conv4_3_norm_mbox_loc"
  type: "Convolution"
  bottom: "conv4_3_norm"
  top: "conv4_3_norm_mbox_loc"
  param {
    lr_mult: 1
    decay_mult: 1
  }
  param {
    lr_mult: 2
    decay_mult: 0
  }
  convolution_param {
    num_output: 16
    pad: 1
    kernel_size: 3
    stride: 1
    weight_filler {
      type: "xavier"
    }
    bias_filler {
      type: "constant"
      value: 0
    }
  }
}
layer {
  name: "conv4_3_norm_mbox_loc_perm"
  type: "Permute"
  bottom: "conv4_3_norm_mbox_loc"
  top: "conv4_3_norm_mbox_loc_perm"
  permute_param {
    order: 0
    order: 2
    order: 3
    order: 1
  }
}
layer {
  name: "conv4_3_norm_mbox_loc_flat"
  type: "Flatten"
  bottom: "conv4_3_norm_mbox_loc_perm"
  top: "conv4_3_norm_mbox_loc_flat"
  flatten_param {
    axis: 1
  }
}
layer {
  name: "conv4_3_norm_mbox_conf"
  type: "Convolution"
  bottom: "conv4_3_norm"
  top: "conv4_3_norm_mbox_conf"
  param {
    lr_mult: 1
    decay_mult: 1
  }
  param {
    lr_mult: 2
    decay_mult: 0
  }
  convolution_param {
    num_output: 20
    pad: 1
    kernel_size: 3
    stride: 1
    weight_filler {
      type: "xavier"
    }
    bias_filler {
      type: "constant"
      value: 0
    }
  }
}
layer {
  name: "conv4_3_norm_mbox_conf_perm"
  type: "Permute"
  bottom: "conv4_3_norm_mbox_conf"
  top: "conv4_3_norm_mbox_conf_perm"
  permute_param {
    order: 0
    order: 2
    order: 3
    order: 1
  }
}
layer {
  name: "conv4_3_norm_mbox_conf_flat"
  type: "Flatten"
  bottom: "conv4_3_norm_mbox_conf_perm"
  top: "conv4_3_norm_mbox_conf_flat"
  flatten_param {
    axis: 1
  }
}
layer {
  name: "conv4_3_norm_mbox_priorbox"
  type: "PriorBox"
  bottom: "conv4_3_norm"
  bottom: "data"
  top: "conv4_3_norm_mbox_priorbox"
  prior_box_param {
    min_size: 35.84
    max_size: 76.8
    aspect_ratio: 2
    flip: true
    clip: false
    variance: 0.1
    variance: 0.1
    variance: 0.2
    variance: 0.2
    step: 8
    offset: 0.5
  }
}
layer {
  name: "fc7_mbox_loc"
  type: "Convolution"
  bottom: "fc7"
  top: "fc7_mbox_loc"
  param {
    lr_mult: 1
    decay_mult: 1
  }
  param {
    lr_mult: 2
    decay_mult: 0
  }
  convolution_param {
    num_output: 24
    pad: 1
    kernel_size: 3
    stride: 1
    weight_filler {
      type: "xavier"
    }
    bias_filler {
      type: "constant"
      value: 0
    }
  }
}
layer {
  name: "fc7_mbox_loc_perm"
  type: "Permute"
  bottom: "fc7_mbox_loc"
  top: "fc7_mbox_loc_perm"
  permute_param {
    order: 0
    order: 2
    order: 3
    order: 1
  }
}
layer {
  name: "fc7_mbox_loc_flat"
  type: "Flatten"
  bottom: "fc7_mbox_loc_perm"
  top: "fc7_mbox_loc_flat"
  flatten_param {
    axis: 1
  }
}
layer {
  name: "fc7_mbox_conf"
  type: "Convolution"
  bottom: "fc7"
  top: "fc7_mbox_conf"
  param {
    lr_mult: 1
    decay_mult: 1
  }
  param {
    lr_mult: 2
    decay_mult: 0
  }
  convolution_param {
    num_output: 30
    pad: 1
    kernel_size: 3
    stride: 1
    weight_filler {
      type: "xavier"
    }
    bias_filler {
      type: "constant"
      value: 0
    }
  }
}
layer {
  name: "fc7_mbox_conf_perm"
  type: "Permute"
  bottom: "fc7_mbox_conf"
  top: "fc7_mbox_conf_perm"
  permute_param {
    order: 0
    order: 2
    order: 3
    order: 1
  }
}
layer {
  name: "fc7_mbox_conf_flat"
  type: "Flatten"
  bottom: "fc7_mbox_conf_perm"
  top: "fc7_mbox_conf_flat"
  flatten_param {
    axis: 1
  }
}
layer {
  name: "fc7_mbox_priorbox"
  type: "PriorBox"
  bottom: "fc7"
  bottom: "data"
  top: "fc7_mbox_priorbox"
  prior_box_param {
    min_size: 76.8
    max_size: 153.6
    aspect_ratio: 2
    aspect_ratio: 3
    flip: true
    clip: false
    variance: 0.1
    variance: 0.1
    variance: 0.2
    variance: 0.2
    step: 16
    offset: 0.5
  }
}
layer {
  name: "conv6_2_mbox_loc"
  type: "Convolution"
  bottom: "conv6_2"
  top: "conv6_2_mbox_loc"
  param {
    lr_mult: 1
    decay_mult: 1
  }
  param {
    lr_mult: 2
    decay_mult: 0
  }
  convolution_param {
    num_output: 24
    pad: 1
    kernel_size: 3
    stride: 1
    weight_filler {
      type: "xavier"
    }
    bias_filler {
      type: "constant"
      value: 0
    }
  }
}
layer {
  name: "conv6_2_mbox_loc_perm"
  type: "Permute"
  bottom: "conv6_2_mbox_loc"
  top: "conv6_2_mbox_loc_perm"
  permute_param {
    order: 0
    order: 2
    order: 3
    order: 1
  }
}
layer {
  name: "conv6_2_mbox_loc_flat"
  type: "Flatten"
  bottom: "conv6_2_mbox_loc_perm"
  top: "conv6_2_mbox_loc_flat"
  flatten_param {
    axis: 1
  }
}
layer {
  name: "conv6_2_mbox_conf"
  type: "Convolution"
  bottom: "conv6_2"
  top: "conv6_2_mbox_conf"
  param {
    lr_mult: 1
    decay_mult: 1
  }
  param {
    lr_mult: 2
    decay_mult: 0
  }
  convolution_param {
    num_output: 30
    pad: 1
    kernel_size: 3
    stride: 1
    weight_filler {
      type: "xavier"
    }
    bias_filler {
      type: "constant"
      value: 0
    }
  }
}
layer {
  name: "conv6_2_mbox_conf_perm"
  type: "Permute"
  bottom: "conv6_2_mbox_conf"
  top: "conv6_2_mbox_conf_perm"
  permute_param {
    order: 0
    order: 2
    order: 3
    order: 1
  }
}
layer {
  name: "conv6_2_mbox_conf_flat"
  type: "Flatten"
  bottom: "conv6_2_mbox_conf_perm"
  top: "conv6_2_mbox_conf_flat"
  flatten_param {
    axis: 1
  }
}
layer {
  name: "conv6_2_mbox_priorbox"
  type: "PriorBox"
  bottom: "conv6_2"
  bottom: "data"
  top: "conv6_2_mbox_priorbox"
  prior_box_param {
    min_size: 153.6
    max_size: 230.4
    aspect_ratio: 2
    aspect_ratio: 3
    flip: true
    clip: false
    variance: 0.1
    variance: 0.1
    variance: 0.2
    variance: 0.2
    step: 32
    offset: 0.5
  }
}
layer {
  name: "conv7_2_mbox_loc"
  type: "Convolution"
  bottom: "conv7_2"
  top: "conv7_2_mbox_loc"
  param {
    lr_mult: 1
    decay_mult: 1
  }
  param {
    lr_mult: 2
    decay_mult: 0
  }
  convolution_param {
    num_output: 24
    pad: 1
    kernel_size: 3
    stride: 1
    weight_filler {
      type: "xavier"
    }
    bias_filler {
      type: "constant"
      value: 0
    }
  }
}
layer {
  name: "conv7_2_mbox_loc_perm"
  type: "Permute"
  bottom: "conv7_2_mbox_loc"
  top: "conv7_2_mbox_loc_perm"
  permute_param {
    order: 0
    order: 2
    order: 3
    order: 1
  }
}
layer {
  name: "conv7_2_mbox_loc_flat"
  type: "Flatten"
  bottom: "conv7_2_mbox_loc_perm"
  top: "conv7_2_mbox_loc_flat"
  flatten_param {
    axis: 1
  }
}
layer {
  name: "conv7_2_mbox_conf"
  type: "Convolution"
  bottom: "conv7_2"
  top: "conv7_2_mbox_conf"
  param {
    lr_mult: 1
    decay_mult: 1
  }
  param {
    lr_mult: 2
    decay_mult: 0
  }
  convolution_param {
    num_output: 30
    pad: 1
    kernel_size: 3
    stride: 1
    weight_filler {
      type: "xavier"
    }
    bias_filler {
      type: "constant"
      value: 0
    }
  }
}
layer {
  name: "conv7_2_mbox_conf_perm"
  type: "Permute"
  bottom: "conv7_2_mbox_conf"
  top: "conv7_2_mbox_conf_perm"
  permute_param {
    order: 0
    order: 2
    order: 3
    order: 1
  }
}
layer {
  name: "conv7_2_mbox_conf_flat"
  type: "Flatten"
  bottom: "conv7_2_mbox_conf_perm"
  top: "conv7_2_mbox_conf_flat"
  flatten_param {
    axis: 1
  }
}
layer {
  name: "conv7_2_mbox_priorbox"
  type: "PriorBox"
  bottom: "conv7_2"
  bottom: "data"
  top: "conv7_2_mbox_priorbox"
  prior_box_param {
    min_size: 230.4
    max_size: 307.2
    aspect_ratio: 2
    aspect_ratio: 3
    flip: true
    clip: false
    variance: 0.1
    variance: 0.1
    variance: 0.2
    variance: 0.2
    step: 64
    offset: 0.5
  }
}
layer {
  name: "conv8_2_mbox_loc"
  type: "Convolution"
  bottom: "conv8_2"
  top: "conv8_2_mbox_loc"
  param {
    lr_mult: 1
    decay_mult: 1
  }
  param {
    lr_mult: 2
    decay_mult: 0
  }
  convolution_param {
    num_output: 24
    pad: 1
    kernel_size: 3
    stride: 1
    weight_filler {
      type: "xavier"
    }
    bias_filler {
      type: "constant"
      value: 0
    }
  }
}
layer {
  name: "conv8_2_mbox_loc_perm"
  type: "Permute"
  bottom: "conv8_2_mbox_loc"
  top: "conv8_2_mbox_loc_perm"
  permute_param {
    order: 0
    order: 2
    order: 3
    order: 1
  }
}
layer {
  name: "conv8_2_mbox_loc_flat"
  type: "Flatten"
  bottom: "conv8_2_mbox_loc_perm"
  top: "conv8_2_mbox_loc_flat"
  flatten_param {
    axis: 1
  }
}
layer {
  name: "conv8_2_mbox_conf"
  type: "Convolution"
  bottom: "conv8_2"
  top: "conv8_2_mbox_conf"
  param {
    lr_mult: 1
    decay_mult: 1
  }
  param {
    lr_mult: 2
    decay_mult: 0
  }
  convolution_param {
    num_output: 30
    pad: 1
    kernel_size: 3
    stride: 1
    weight_filler {
      type: "xavier"
    }
    bias_filler {
      type: "constant"
      value: 0
    }
  }
}
layer {
  name: "conv8_2_mbox_conf_perm"
  type: "Permute"
  bottom: "conv8_2_mbox_conf"
  top: "conv8_2_mbox_conf_perm"
  permute_param {
    order: 0
    order: 2
    order: 3
    order: 1
  }
}
layer {
  name: "conv8_2_mbox_conf_flat"
  type: "Flatten"
  bottom: "conv8_2_mbox_conf_perm"
  top: "conv8_2_mbox_conf_flat"
  flatten_param {
    axis: 1
  }
}
layer {
  name: "conv8_2_mbox_priorbox"
  type: "PriorBox"
  bottom: "conv8_2"
  bottom: "data"
  top: "conv8_2_mbox_priorbox"
  prior_box_param {
    min_size: 307.2
    max_size: 384
    aspect_ratio: 2
    aspect_ratio: 3
    flip: true
    clip: false
    variance: 0.1
    variance: 0.1
    variance: 0.2
    variance: 0.2
    step: 128
    offset: 0.5
  }
}
layer {
  name: "conv9_2_mbox_loc"
  type: "Convolution"
  bottom: "conv9_2"
  top: "conv9_2_mbox_loc"
  param {
    lr_mult: 1
    decay_mult: 1
  }
  param {
    lr_mult: 2
    decay_mult: 0
  }
  convolution_param {
    num_output: 16
    pad: 1
    kernel_size: 3
    stride: 1
    weight_filler {
      type: "xavier"
    }
    bias_filler {
      type: "constant"
      value: 0
    }
  }
}
layer {
  name: "conv9_2_mbox_loc_perm"
  type: "Permute"
  bottom: "conv9_2_mbox_loc"
  top: "conv9_2_mbox_loc_perm"
  permute_param {
    order: 0
    order: 2
    order: 3
    order: 1
  }
}
layer {
  name: "conv9_2_mbox_loc_flat"
  type: "Flatten"
  bottom: "conv9_2_mbox_loc_perm"
  top: "conv9_2_mbox_loc_flat"
  flatten_param {
    axis: 1
  }
}
layer {
  name: "conv9_2_mbox_conf"
  type: "Convolution"
  bottom: "conv9_2"
  top: "conv9_2_mbox_conf"
  param {
    lr_mult: 1
    decay_mult: 1
  }
  param {
    lr_mult: 2
    decay_mult: 0
  }
  convolution_param {
    num_output: 20
    pad: 1
    kernel_size: 3
    stride: 1
    weight_filler {
      type: "xavier"
    }
    bias_filler {
      type: "constant"
      value: 0
    }
  }
}
layer {
  name: "conv9_2_mbox_conf_perm"
  type: "Permute"
  bottom: "conv9_2_mbox_conf"
  top: "conv9_2_mbox_conf_perm"
  permute_param {
    order: 0
    order: 2
    order: 3
    order: 1
  }
}
layer {
  name: "conv9_2_mbox_conf_flat"
  type: "Flatten"
  bottom: "conv9_2_mbox_conf_perm"
  top: "conv9_2_mbox_conf_flat"
  flatten_param {
    axis: 1
  }
}
layer {
  name: "conv9_2_mbox_priorbox"
  type: "PriorBox"
  bottom: "conv9_2"
  bottom: "data"
  top: "conv9_2_mbox_priorbox"
  prior_box_param {
    min_size: 384
    max_size: 460.8
    aspect_ratio: 2
    flip: true
    clip: false
    variance: 0.1
    variance: 0.1
    variance: 0.2
    variance: 0.2
    step: 256
    offset: 0.5
  }
}
layer {
  name: "conv10_2_mbox_loc"
  type: "Convolution"
  bottom: "conv10_2"
  top: "conv10_2_mbox_loc"
  param {
    lr_mult: 1
    decay_mult: 1
  }
  param {
    lr_mult: 2
    decay_mult: 0
  }
  convolution_param {
    num_output: 16
    pad: 1
    kernel_size: 3
    stride: 1
    weight_filler {
      type: "xavier"
    }
    bias_filler {
      type: "constant"
      value: 0
    }
  }
}
layer {
  name: "conv10_2_mbox_loc_perm"
  type: "Permute"
  bottom: "conv10_2_mbox_loc"
  top: "conv10_2_mbox_loc_perm"
  permute_param {
    order: 0
    order: 2
    order: 3
    order: 1
  }
}
layer {
  name: "conv10_2_mbox_loc_flat"
  type: "Flatten"
  bottom: "conv10_2_mbox_loc_perm"
  top: "conv10_2_mbox_loc_flat"
  flatten_param {
    axis: 1
  }
}
layer {
  name: "conv10_2_mbox_conf"
  type: "Convolution"
  bottom: "conv10_2"
  top: "conv10_2_mbox_conf"
  param {
    lr_mult: 1
    decay_mult: 1
  }
  param {
    lr_mult: 2
    decay_mult: 0
  }
  convolution_param {
    num_output: 20
    pad: 1
    kernel_size: 3
    stride: 1
    weight_filler {
      type: "xavier"
    }
    bias_filler {
      type: "constant"
      value: 0
    }
  }
}
layer {
  name: "conv10_2_mbox_conf_perm"
  type: "Permute"
  bottom: "conv10_2_mbox_conf"
  top: "conv10_2_mbox_conf_perm"
  permute_param {
    order: 0
    order: 2
    order: 3
    order: 1
  }
}
layer {
  name: "conv10_2_mbox_conf_flat"
  type: "Flatten"
  bottom: "conv10_2_mbox_conf_perm"
  top: "conv10_2_mbox_conf_flat"
  flatten_param {
    axis: 1
  }
}
layer {
  name: "conv10_2_mbox_priorbox"
  type: "PriorBox"
  bottom: "conv10_2"
  bottom: "data"
  top: "conv10_2_mbox_priorbox"
  prior_box_param {
    min_size: 460.8
    max_size: 537.6
    aspect_ratio: 2
    flip: true
    clip: false
    variance: 0.1
    variance: 0.1
    variance: 0.2
    variance: 0.2
    step: 512
    offset: 0.5
  }
}
layer {
  name: "mbox_loc"
  type: "Concat"
  bottom: "conv4_3_norm_mbox_loc_flat"
  bottom: "fc7_mbox_loc_flat"
  bottom: "conv6_2_mbox_loc_flat"
  bottom: "conv7_2_mbox_loc_flat"
  bottom: "conv8_2_mbox_loc_flat"
  bottom: "conv9_2_mbox_loc_flat"
  bottom: "conv10_2_mbox_loc_flat"
  top: "mbox_loc"
  concat_param {
    axis: 1
  }
}
layer {
  name: "mbox_conf"
  type: "Concat"
  bottom: "conv4_3_norm_mbox_conf_flat"
  bottom: "fc7_mbox_conf_flat"
  bottom: "conv6_2_mbox_conf_flat"
  bottom: "conv7_2_mbox_conf_flat"
  bottom: "conv8_2_mbox_conf_flat"
  bottom: "conv9_2_mbox_conf_flat"
  bottom: "conv10_2_mbox_conf_flat"
  top: "mbox_conf"
  concat_param {
    axis: 1
  }
}
layer {
  name: "mbox_priorbox"
  type: "Concat"
  bottom: "conv4_3_norm_mbox_priorbox"
  bottom: "fc7_mbox_priorbox"
  bottom: "conv6_2_mbox_priorbox"
  bottom: "conv7_2_mbox_priorbox"
  bottom: "conv8_2_mbox_priorbox"
  bottom: "conv9_2_mbox_priorbox"
  bottom: "conv10_2_mbox_priorbox"
  top: "mbox_priorbox"
  concat_param {
    axis: 2
  }
}
layer {
  name: "mbox_conf_reshape"
  type: "Reshape"
  bottom: "mbox_conf"
  top: "mbox_conf_reshape"
  reshape_param {
    shape {
      dim: 0
      dim: -1
      dim: 5
    }
  }
}
layer {
  name: "mbox_conf_softmax"
  type: "Softmax"
  bottom: "mbox_conf_reshape"
  top: "mbox_conf_softmax"
  softmax_param {
    axis: 2
  }
}
layer {
  name: "mbox_conf_flatten"
  type: "Flatten"
  bottom: "mbox_conf_softmax"
  top: "mbox_conf_flatten"
  flatten_param {
    axis: 1
  }
}
layer {
  name: "detection_out"
  type: "DetectionOutput"
  bottom: "mbox_loc"
  bottom: "mbox_conf_flatten"
  bottom: "mbox_priorbox"
  top: "detection_out"
  include {
    phase: TEST
  }
  detection_output_param {
    num_classes: 5
    share_location: true
    background_label_id: 0
    nms_param {
      nms_threshold: 0.45
      top_k: 400
    }
    code_type: CENTER_SIZE
    keep_top_k: 200
  }
}
layer {
  name: "detection_eval"
  type: "DetectionEvaluate"
  bottom: "detection_out"
  bottom: "label"
  top: "detection_eval"
  include {
    phase: TEST
  }
  detection_evaluate_param {
    num_classes: 5
    background_label_id: 0
    overlap_threshold: 0.5
    evaluate_difficult_gt: false
  }
}
I0206 07:36:29.703219  6300 layer_factory.hpp:77] Creating layer data
I0206 07:36:29.703274  6300 net.cpp:100] Creating Layer data
I0206 07:36:29.703286  6300 net.cpp:408] data -> data
I0206 07:36:29.703296  6300 net.cpp:408] data -> label
I0206 07:36:29.704202  6329 db_lmdb.cpp:35] Opened lmdb data/actions/actions_0203/lmdb/actions_trainval_lmdb
I0206 07:36:29.767554  6300 annotated_data_layer.cpp:62] output data size: 1,3,512,512
I0206 07:36:29.774364  6300 net.cpp:150] Setting up data
I0206 07:36:29.774427  6300 net.cpp:157] Top shape: 1 3 512 512 (786432)
I0206 07:36:29.774444  6300 net.cpp:157] Top shape: 1 1 5 8 (40)
I0206 07:36:29.774456  6300 net.cpp:165] Memory required for data: 3145888
I0206 07:36:29.774471  6300 layer_factory.hpp:77] Creating layer data_data_0_split
I0206 07:36:29.774494  6300 net.cpp:100] Creating Layer data_data_0_split
I0206 07:36:29.774507  6300 net.cpp:434] data_data_0_split <- data
I0206 07:36:29.774524  6300 net.cpp:408] data_data_0_split -> data_data_0_split_0
I0206 07:36:29.774545  6300 net.cpp:408] data_data_0_split -> data_data_0_split_1
I0206 07:36:29.774561  6300 net.cpp:408] data_data_0_split -> data_data_0_split_2
I0206 07:36:29.774577  6300 net.cpp:408] data_data_0_split -> data_data_0_split_3
I0206 07:36:29.774591  6300 net.cpp:408] data_data_0_split -> data_data_0_split_4
I0206 07:36:29.774606  6300 net.cpp:408] data_data_0_split -> data_data_0_split_5
I0206 07:36:29.774621  6300 net.cpp:408] data_data_0_split -> data_data_0_split_6
I0206 07:36:29.774636  6300 net.cpp:408] data_data_0_split -> data_data_0_split_7
I0206 07:36:29.774770  6300 net.cpp:150] Setting up data_data_0_split
I0206 07:36:29.774788  6300 net.cpp:157] Top shape: 1 3 512 512 (786432)
I0206 07:36:29.774801  6300 net.cpp:157] Top shape: 1 3 512 512 (786432)
I0206 07:36:29.774814  6300 net.cpp:157] Top shape: 1 3 512 512 (786432)
I0206 07:36:29.774827  6300 net.cpp:157] Top shape: 1 3 512 512 (786432)
I0206 07:36:29.774839  6300 net.cpp:157] Top shape: 1 3 512 512 (786432)
I0206 07:36:29.774852  6300 net.cpp:157] Top shape: 1 3 512 512 (786432)
I0206 07:36:29.774864  6300 net.cpp:157] Top shape: 1 3 512 512 (786432)
I0206 07:36:29.774876  6300 net.cpp:157] Top shape: 1 3 512 512 (786432)
I0206 07:36:29.774888  6300 net.cpp:165] Memory required for data: 28311712
I0206 07:36:29.774899  6300 layer_factory.hpp:77] Creating layer conv1_1
I0206 07:36:29.774922  6300 net.cpp:100] Creating Layer conv1_1
I0206 07:36:29.774935  6300 net.cpp:434] conv1_1 <- data_data_0_split_0
I0206 07:36:29.774950  6300 net.cpp:408] conv1_1 -> conv1_1
I0206 07:36:29.775471  6300 net.cpp:150] Setting up conv1_1
I0206 07:36:29.775483  6300 net.cpp:157] Top shape: 1 64 512 512 (16777216)
I0206 07:36:29.775487  6300 net.cpp:165] Memory required for data: 95420576
I0206 07:36:29.775501  6300 layer_factory.hpp:77] Creating layer relu1_1
I0206 07:36:29.775507  6300 net.cpp:100] Creating Layer relu1_1
I0206 07:36:29.775511  6300 net.cpp:434] relu1_1 <- conv1_1
I0206 07:36:29.775516  6300 net.cpp:395] relu1_1 -> conv1_1 (in-place)
I0206 07:36:29.775523  6300 net.cpp:150] Setting up relu1_1
I0206 07:36:29.775539  6300 net.cpp:157] Top shape: 1 64 512 512 (16777216)
I0206 07:36:29.775543  6300 net.cpp:165] Memory required for data: 162529440
I0206 07:36:29.775547  6300 layer_factory.hpp:77] Creating layer conv1_2
I0206 07:36:29.775557  6300 net.cpp:100] Creating Layer conv1_2
I0206 07:36:29.775560  6300 net.cpp:434] conv1_2 <- conv1_1
I0206 07:36:29.775568  6300 net.cpp:408] conv1_2 -> conv1_2
I0206 07:36:29.779559  6300 net.cpp:150] Setting up conv1_2
I0206 07:36:29.779592  6300 net.cpp:157] Top shape: 1 64 512 512 (16777216)
I0206 07:36:29.779597  6300 net.cpp:165] Memory required for data: 229638304
I0206 07:36:29.779626  6300 layer_factory.hpp:77] Creating layer relu1_2
I0206 07:36:29.779644  6300 net.cpp:100] Creating Layer relu1_2
I0206 07:36:29.779659  6300 net.cpp:434] relu1_2 <- conv1_2
I0206 07:36:29.779683  6300 net.cpp:395] relu1_2 -> conv1_2 (in-place)
I0206 07:36:29.779698  6300 net.cpp:150] Setting up relu1_2
I0206 07:36:29.779708  6300 net.cpp:157] Top shape: 1 64 512 512 (16777216)
I0206 07:36:29.779712  6300 net.cpp:165] Memory required for data: 296747168
I0206 07:36:29.779721  6300 layer_factory.hpp:77] Creating layer pool1
I0206 07:36:29.779739  6300 net.cpp:100] Creating Layer pool1
I0206 07:36:29.779743  6300 net.cpp:434] pool1 <- conv1_2
I0206 07:36:29.779749  6300 net.cpp:408] pool1 -> pool1
I0206 07:36:29.779837  6300 net.cpp:150] Setting up pool1
I0206 07:36:29.779871  6300 net.cpp:157] Top shape: 1 64 256 256 (4194304)
I0206 07:36:29.779875  6300 net.cpp:165] Memory required for data: 313524384
I0206 07:36:29.779878  6300 layer_factory.hpp:77] Creating layer conv2_1
I0206 07:36:29.779894  6300 net.cpp:100] Creating Layer conv2_1
I0206 07:36:29.779899  6300 net.cpp:434] conv2_1 <- pool1
I0206 07:36:29.779906  6300 net.cpp:408] conv2_1 -> conv2_1
I0206 07:36:29.780452  6300 net.cpp:150] Setting up conv2_1
I0206 07:36:29.780459  6300 net.cpp:157] Top shape: 1 128 256 256 (8388608)
I0206 07:36:29.780462  6300 net.cpp:165] Memory required for data: 347078816
I0206 07:36:29.780468  6300 layer_factory.hpp:77] Creating layer relu2_1
I0206 07:36:29.780474  6300 net.cpp:100] Creating Layer relu2_1
I0206 07:36:29.780478  6300 net.cpp:434] relu2_1 <- conv2_1
I0206 07:36:29.780480  6300 net.cpp:395] relu2_1 -> conv2_1 (in-place)
I0206 07:36:29.780485  6300 net.cpp:150] Setting up relu2_1
I0206 07:36:29.780488  6300 net.cpp:157] Top shape: 1 128 256 256 (8388608)
I0206 07:36:29.780490  6300 net.cpp:165] Memory required for data: 380633248
I0206 07:36:29.780493  6300 layer_factory.hpp:77] Creating layer conv2_2
I0206 07:36:29.780499  6300 net.cpp:100] Creating Layer conv2_2
I0206 07:36:29.780503  6300 net.cpp:434] conv2_2 <- conv2_1
I0206 07:36:29.780508  6300 net.cpp:408] conv2_2 -> conv2_2
I0206 07:36:29.781275  6300 net.cpp:150] Setting up conv2_2
I0206 07:36:29.781282  6300 net.cpp:157] Top shape: 1 128 256 256 (8388608)
I0206 07:36:29.781286  6300 net.cpp:165] Memory required for data: 414187680
I0206 07:36:29.781292  6300 layer_factory.hpp:77] Creating layer relu2_2
I0206 07:36:29.781297  6300 net.cpp:100] Creating Layer relu2_2
I0206 07:36:29.781301  6300 net.cpp:434] relu2_2 <- conv2_2
I0206 07:36:29.781303  6300 net.cpp:395] relu2_2 -> conv2_2 (in-place)
I0206 07:36:29.781307  6300 net.cpp:150] Setting up relu2_2
I0206 07:36:29.781311  6300 net.cpp:157] Top shape: 1 128 256 256 (8388608)
I0206 07:36:29.781313  6300 net.cpp:165] Memory required for data: 447742112
I0206 07:36:29.781316  6300 layer_factory.hpp:77] Creating layer pool2
I0206 07:36:29.781319  6300 net.cpp:100] Creating Layer pool2
I0206 07:36:29.781322  6300 net.cpp:434] pool2 <- conv2_2
I0206 07:36:29.781325  6300 net.cpp:408] pool2 -> pool2
I0206 07:36:29.781358  6300 net.cpp:150] Setting up pool2
I0206 07:36:29.781363  6300 net.cpp:157] Top shape: 1 128 128 128 (2097152)
I0206 07:36:29.781366  6300 net.cpp:165] Memory required for data: 456130720
I0206 07:36:29.781369  6300 layer_factory.hpp:77] Creating layer conv3_1
I0206 07:36:29.781378  6300 net.cpp:100] Creating Layer conv3_1
I0206 07:36:29.781381  6300 net.cpp:434] conv3_1 <- pool2
I0206 07:36:29.781388  6300 net.cpp:408] conv3_1 -> conv3_1
I0206 07:36:29.786301  6300 net.cpp:150] Setting up conv3_1
I0206 07:36:29.786341  6300 net.cpp:157] Top shape: 1 256 128 128 (4194304)
I0206 07:36:29.786353  6300 net.cpp:165] Memory required for data: 472907936
I0206 07:36:29.786383  6300 layer_factory.hpp:77] Creating layer relu3_1
I0206 07:36:29.786422  6300 net.cpp:100] Creating Layer relu3_1
I0206 07:36:29.786439  6300 net.cpp:434] relu3_1 <- conv3_1
I0206 07:36:29.786466  6300 net.cpp:395] relu3_1 -> conv3_1 (in-place)
I0206 07:36:29.786494  6300 net.cpp:150] Setting up relu3_1
I0206 07:36:29.786511  6300 net.cpp:157] Top shape: 1 256 128 128 (4194304)
I0206 07:36:29.786522  6300 net.cpp:165] Memory required for data: 489685152
I0206 07:36:29.786536  6300 layer_factory.hpp:77] Creating layer conv3_2
I0206 07:36:29.786685  6300 net.cpp:100] Creating Layer conv3_2
I0206 07:36:29.786700  6300 net.cpp:434] conv3_2 <- conv3_1
I0206 07:36:29.786720  6300 net.cpp:408] conv3_2 -> conv3_2
I0206 07:36:29.846012  6300 net.cpp:150] Setting up conv3_2
I0206 07:36:29.846115  6300 net.cpp:157] Top shape: 1 256 128 128 (4194304)
I0206 07:36:29.846140  6300 net.cpp:165] Memory required for data: 506462368
I0206 07:36:29.846174  6300 layer_factory.hpp:77] Creating layer relu3_2
I0206 07:36:29.846220  6300 net.cpp:100] Creating Layer relu3_2
I0206 07:36:29.846276  6300 net.cpp:434] relu3_2 <- conv3_2
I0206 07:36:29.846303  6300 net.cpp:395] relu3_2 -> conv3_2 (in-place)
I0206 07:36:29.846336  6300 net.cpp:150] Setting up relu3_2
I0206 07:36:29.846361  6300 net.cpp:157] Top shape: 1 256 128 128 (4194304)
I0206 07:36:29.846381  6300 net.cpp:165] Memory required for data: 523239584
I0206 07:36:29.846402  6300 layer_factory.hpp:77] Creating layer conv3_3
I0206 07:36:29.846441  6300 net.cpp:100] Creating Layer conv3_3
I0206 07:36:29.846539  6300 net.cpp:434] conv3_3 <- conv3_2
I0206 07:36:29.846573  6300 net.cpp:408] conv3_3 -> conv3_3
I0206 07:36:29.895884  6300 net.cpp:150] Setting up conv3_3
I0206 07:36:29.895918  6300 net.cpp:157] Top shape: 1 256 128 128 (4194304)
I0206 07:36:29.895925  6300 net.cpp:165] Memory required for data: 540016800
I0206 07:36:29.895941  6300 layer_factory.hpp:77] Creating layer relu3_3
I0206 07:36:29.895956  6300 net.cpp:100] Creating Layer relu3_3
I0206 07:36:29.895972  6300 net.cpp:434] relu3_3 <- conv3_3
I0206 07:36:29.895983  6300 net.cpp:395] relu3_3 -> conv3_3 (in-place)
I0206 07:36:29.896003  6300 net.cpp:150] Setting up relu3_3
I0206 07:36:29.896013  6300 net.cpp:157] Top shape: 1 256 128 128 (4194304)
I0206 07:36:29.896021  6300 net.cpp:165] Memory required for data: 556794016
I0206 07:36:29.896030  6300 layer_factory.hpp:77] Creating layer pool3
I0206 07:36:29.896041  6300 net.cpp:100] Creating Layer pool3
I0206 07:36:29.896047  6300 net.cpp:434] pool3 <- conv3_3
I0206 07:36:29.896056  6300 net.cpp:408] pool3 -> pool3
I0206 07:36:29.896121  6300 net.cpp:150] Setting up pool3
I0206 07:36:29.896133  6300 net.cpp:157] Top shape: 1 256 64 64 (1048576)
I0206 07:36:29.896139  6300 net.cpp:165] Memory required for data: 560988320
I0206 07:36:29.896145  6300 layer_factory.hpp:77] Creating layer conv4_1
I0206 07:36:29.896160  6300 net.cpp:100] Creating Layer conv4_1
I0206 07:36:29.896167  6300 net.cpp:434] conv4_1 <- pool3
I0206 07:36:29.896176  6300 net.cpp:408] conv4_1 -> conv4_1
I0206 07:36:29.911996  6300 net.cpp:150] Setting up conv4_1
I0206 07:36:29.912040  6300 net.cpp:157] Top shape: 1 512 64 64 (2097152)
I0206 07:36:29.912046  6300 net.cpp:165] Memory required for data: 569376928
I0206 07:36:29.912062  6300 layer_factory.hpp:77] Creating layer relu4_1
I0206 07:36:29.912077  6300 net.cpp:100] Creating Layer relu4_1
I0206 07:36:29.912089  6300 net.cpp:434] relu4_1 <- conv4_1
I0206 07:36:29.912102  6300 net.cpp:395] relu4_1 -> conv4_1 (in-place)
I0206 07:36:29.912120  6300 net.cpp:150] Setting up relu4_1
I0206 07:36:29.912132  6300 net.cpp:157] Top shape: 1 512 64 64 (2097152)
I0206 07:36:29.912138  6300 net.cpp:165] Memory required for data: 577765536
I0206 07:36:29.912147  6300 layer_factory.hpp:77] Creating layer conv4_2
I0206 07:36:29.912163  6300 net.cpp:100] Creating Layer conv4_2
I0206 07:36:29.912173  6300 net.cpp:434] conv4_2 <- conv4_1
I0206 07:36:29.912184  6300 net.cpp:408] conv4_2 -> conv4_2
I0206 07:36:29.980628  6300 net.cpp:150] Setting up conv4_2
I0206 07:36:29.980669  6300 net.cpp:157] Top shape: 1 512 64 64 (2097152)
I0206 07:36:29.980675  6300 net.cpp:165] Memory required for data: 586154144
I0206 07:36:29.980695  6300 layer_factory.hpp:77] Creating layer relu4_2
I0206 07:36:29.980708  6300 net.cpp:100] Creating Layer relu4_2
I0206 07:36:29.980715  6300 net.cpp:434] relu4_2 <- conv4_2
I0206 07:36:29.980725  6300 net.cpp:395] relu4_2 -> conv4_2 (in-place)
I0206 07:36:29.980754  6300 net.cpp:150] Setting up relu4_2
I0206 07:36:29.980762  6300 net.cpp:157] Top shape: 1 512 64 64 (2097152)
I0206 07:36:29.980767  6300 net.cpp:165] Memory required for data: 594542752
I0206 07:36:29.980772  6300 layer_factory.hpp:77] Creating layer conv4_3
I0206 07:36:29.980789  6300 net.cpp:100] Creating Layer conv4_3
I0206 07:36:29.980798  6300 net.cpp:434] conv4_3 <- conv4_2
I0206 07:36:29.980805  6300 net.cpp:408] conv4_3 -> conv4_3
I0206 07:36:30.028743  6300 net.cpp:150] Setting up conv4_3
I0206 07:36:30.028776  6300 net.cpp:157] Top shape: 1 512 64 64 (2097152)
I0206 07:36:30.028781  6300 net.cpp:165] Memory required for data: 602931360
I0206 07:36:30.028825  6300 layer_factory.hpp:77] Creating layer relu4_3
I0206 07:36:30.028841  6300 net.cpp:100] Creating Layer relu4_3
I0206 07:36:30.028848  6300 net.cpp:434] relu4_3 <- conv4_3
I0206 07:36:30.028861  6300 net.cpp:395] relu4_3 -> conv4_3 (in-place)
I0206 07:36:30.028874  6300 net.cpp:150] Setting up relu4_3
I0206 07:36:30.028882  6300 net.cpp:157] Top shape: 1 512 64 64 (2097152)
I0206 07:36:30.028888  6300 net.cpp:165] Memory required for data: 611319968
I0206 07:36:30.028892  6300 layer_factory.hpp:77] Creating layer conv4_3_relu4_3_0_split
I0206 07:36:30.028899  6300 net.cpp:100] Creating Layer conv4_3_relu4_3_0_split
I0206 07:36:30.028906  6300 net.cpp:434] conv4_3_relu4_3_0_split <- conv4_3
I0206 07:36:30.028913  6300 net.cpp:408] conv4_3_relu4_3_0_split -> conv4_3_relu4_3_0_split_0
I0206 07:36:30.028923  6300 net.cpp:408] conv4_3_relu4_3_0_split -> conv4_3_relu4_3_0_split_1
I0206 07:36:30.028969  6300 net.cpp:150] Setting up conv4_3_relu4_3_0_split
I0206 07:36:30.028975  6300 net.cpp:157] Top shape: 1 512 64 64 (2097152)
I0206 07:36:30.028980  6300 net.cpp:157] Top shape: 1 512 64 64 (2097152)
I0206 07:36:30.028985  6300 net.cpp:165] Memory required for data: 628097184
I0206 07:36:30.028990  6300 layer_factory.hpp:77] Creating layer pool4
I0206 07:36:30.029000  6300 net.cpp:100] Creating Layer pool4
I0206 07:36:30.029006  6300 net.cpp:434] pool4 <- conv4_3_relu4_3_0_split_0
I0206 07:36:30.029014  6300 net.cpp:408] pool4 -> pool4
I0206 07:36:30.029057  6300 net.cpp:150] Setting up pool4
I0206 07:36:30.029067  6300 net.cpp:157] Top shape: 1 512 32 32 (524288)
I0206 07:36:30.029070  6300 net.cpp:165] Memory required for data: 630194336
I0206 07:36:30.029074  6300 layer_factory.hpp:77] Creating layer conv5_1
I0206 07:36:30.029086  6300 net.cpp:100] Creating Layer conv5_1
I0206 07:36:30.029090  6300 net.cpp:434] conv5_1 <- pool4
I0206 07:36:30.029098  6300 net.cpp:408] conv5_1 -> conv5_1
I0206 07:36:30.044786  6300 net.cpp:150] Setting up conv5_1
I0206 07:36:30.044814  6300 net.cpp:157] Top shape: 1 512 32 32 (524288)
I0206 07:36:30.044817  6300 net.cpp:165] Memory required for data: 632291488
I0206 07:36:30.044826  6300 layer_factory.hpp:77] Creating layer relu5_1
I0206 07:36:30.044834  6300 net.cpp:100] Creating Layer relu5_1
I0206 07:36:30.044839  6300 net.cpp:434] relu5_1 <- conv5_1
I0206 07:36:30.044845  6300 net.cpp:395] relu5_1 -> conv5_1 (in-place)
I0206 07:36:30.044854  6300 net.cpp:150] Setting up relu5_1
I0206 07:36:30.044857  6300 net.cpp:157] Top shape: 1 512 32 32 (524288)
I0206 07:36:30.044860  6300 net.cpp:165] Memory required for data: 634388640
I0206 07:36:30.044862  6300 layer_factory.hpp:77] Creating layer conv5_2
I0206 07:36:30.044872  6300 net.cpp:100] Creating Layer conv5_2
I0206 07:36:30.044876  6300 net.cpp:434] conv5_2 <- conv5_1
I0206 07:36:30.044880  6300 net.cpp:408] conv5_2 -> conv5_2
I0206 07:36:30.057333  6300 net.cpp:150] Setting up conv5_2
I0206 07:36:30.057358  6300 net.cpp:157] Top shape: 1 512 32 32 (524288)
I0206 07:36:30.057361  6300 net.cpp:165] Memory required for data: 636485792
I0206 07:36:30.057368  6300 layer_factory.hpp:77] Creating layer relu5_2
I0206 07:36:30.057376  6300 net.cpp:100] Creating Layer relu5_2
I0206 07:36:30.057381  6300 net.cpp:434] relu5_2 <- conv5_2
I0206 07:36:30.057387  6300 net.cpp:395] relu5_2 -> conv5_2 (in-place)
I0206 07:36:30.057395  6300 net.cpp:150] Setting up relu5_2
I0206 07:36:30.057399  6300 net.cpp:157] Top shape: 1 512 32 32 (524288)
I0206 07:36:30.057401  6300 net.cpp:165] Memory required for data: 638582944
I0206 07:36:30.057404  6300 layer_factory.hpp:77] Creating layer conv5_3
I0206 07:36:30.057412  6300 net.cpp:100] Creating Layer conv5_3
I0206 07:36:30.057426  6300 net.cpp:434] conv5_3 <- conv5_2
I0206 07:36:30.057430  6300 net.cpp:408] conv5_3 -> conv5_3
I0206 07:36:30.069097  6300 net.cpp:150] Setting up conv5_3
I0206 07:36:30.069123  6300 net.cpp:157] Top shape: 1 512 32 32 (524288)
I0206 07:36:30.069125  6300 net.cpp:165] Memory required for data: 640680096
I0206 07:36:30.069133  6300 layer_factory.hpp:77] Creating layer relu5_3
I0206 07:36:30.069170  6300 net.cpp:100] Creating Layer relu5_3
I0206 07:36:30.069177  6300 net.cpp:434] relu5_3 <- conv5_3
I0206 07:36:30.069183  6300 net.cpp:395] relu5_3 -> conv5_3 (in-place)
I0206 07:36:30.069192  6300 net.cpp:150] Setting up relu5_3
I0206 07:36:30.069197  6300 net.cpp:157] Top shape: 1 512 32 32 (524288)
I0206 07:36:30.069200  6300 net.cpp:165] Memory required for data: 642777248
I0206 07:36:30.069202  6300 layer_factory.hpp:77] Creating layer pool5
I0206 07:36:30.069209  6300 net.cpp:100] Creating Layer pool5
I0206 07:36:30.069211  6300 net.cpp:434] pool5 <- conv5_3
I0206 07:36:30.069216  6300 net.cpp:408] pool5 -> pool5
I0206 07:36:30.069247  6300 net.cpp:150] Setting up pool5
I0206 07:36:30.069253  6300 net.cpp:157] Top shape: 1 512 32 32 (524288)
I0206 07:36:30.069257  6300 net.cpp:165] Memory required for data: 644874400
I0206 07:36:30.069258  6300 layer_factory.hpp:77] Creating layer fc6
I0206 07:36:30.069269  6300 net.cpp:100] Creating Layer fc6
I0206 07:36:30.069275  6300 net.cpp:434] fc6 <- pool5
I0206 07:36:30.069283  6300 net.cpp:408] fc6 -> fc6
I0206 07:36:30.094596  6300 net.cpp:150] Setting up fc6
I0206 07:36:30.094622  6300 net.cpp:157] Top shape: 1 1024 32 32 (1048576)
I0206 07:36:30.094625  6300 net.cpp:165] Memory required for data: 649068704
I0206 07:36:30.094633  6300 layer_factory.hpp:77] Creating layer relu6
I0206 07:36:30.094641  6300 net.cpp:100] Creating Layer relu6
I0206 07:36:30.094655  6300 net.cpp:434] relu6 <- fc6
I0206 07:36:30.094662  6300 net.cpp:395] relu6 -> fc6 (in-place)
I0206 07:36:30.094671  6300 net.cpp:150] Setting up relu6
I0206 07:36:30.094674  6300 net.cpp:157] Top shape: 1 1024 32 32 (1048576)
I0206 07:36:30.094676  6300 net.cpp:165] Memory required for data: 653263008
I0206 07:36:30.094679  6300 layer_factory.hpp:77] Creating layer fc7
I0206 07:36:30.094688  6300 net.cpp:100] Creating Layer fc7
I0206 07:36:30.094691  6300 net.cpp:434] fc7 <- fc6
I0206 07:36:30.094696  6300 net.cpp:408] fc7 -> fc7
I0206 07:36:30.103400  6300 net.cpp:150] Setting up fc7
I0206 07:36:30.103464  6300 net.cpp:157] Top shape: 1 1024 32 32 (1048576)
I0206 07:36:30.103478  6300 net.cpp:165] Memory required for data: 657457312
I0206 07:36:30.103497  6300 layer_factory.hpp:77] Creating layer relu7
I0206 07:36:30.103516  6300 net.cpp:100] Creating Layer relu7
I0206 07:36:30.103530  6300 net.cpp:434] relu7 <- fc7
I0206 07:36:30.103545  6300 net.cpp:395] relu7 -> fc7 (in-place)
I0206 07:36:30.103564  6300 net.cpp:150] Setting up relu7
I0206 07:36:30.103576  6300 net.cpp:157] Top shape: 1 1024 32 32 (1048576)
I0206 07:36:30.103586  6300 net.cpp:165] Memory required for data: 661651616
I0206 07:36:30.103596  6300 layer_factory.hpp:77] Creating layer fc7_relu7_0_split
I0206 07:36:30.103612  6300 net.cpp:100] Creating Layer fc7_relu7_0_split
I0206 07:36:30.103622  6300 net.cpp:434] fc7_relu7_0_split <- fc7
I0206 07:36:30.103636  6300 net.cpp:408] fc7_relu7_0_split -> fc7_relu7_0_split_0
I0206 07:36:30.103655  6300 net.cpp:408] fc7_relu7_0_split -> fc7_relu7_0_split_1
I0206 07:36:30.103672  6300 net.cpp:408] fc7_relu7_0_split -> fc7_relu7_0_split_2
I0206 07:36:30.103687  6300 net.cpp:408] fc7_relu7_0_split -> fc7_relu7_0_split_3
I0206 07:36:30.103761  6300 net.cpp:150] Setting up fc7_relu7_0_split
I0206 07:36:30.103780  6300 net.cpp:157] Top shape: 1 1024 32 32 (1048576)
I0206 07:36:30.103790  6300 net.cpp:157] Top shape: 1 1024 32 32 (1048576)
I0206 07:36:30.103804  6300 net.cpp:157] Top shape: 1 1024 32 32 (1048576)
I0206 07:36:30.103816  6300 net.cpp:157] Top shape: 1 1024 32 32 (1048576)
I0206 07:36:30.103827  6300 net.cpp:165] Memory required for data: 678428832
I0206 07:36:30.103839  6300 layer_factory.hpp:77] Creating layer conv6_1
I0206 07:36:30.103858  6300 net.cpp:100] Creating Layer conv6_1
I0206 07:36:30.103871  6300 net.cpp:434] conv6_1 <- fc7_relu7_0_split_0
I0206 07:36:30.103886  6300 net.cpp:408] conv6_1 -> conv6_1
I0206 07:36:30.106322  6300 net.cpp:150] Setting up conv6_1
I0206 07:36:30.106334  6300 net.cpp:157] Top shape: 1 256 32 32 (262144)
I0206 07:36:30.106355  6300 net.cpp:165] Memory required for data: 679477408
I0206 07:36:30.106362  6300 layer_factory.hpp:77] Creating layer conv6_1_relu
I0206 07:36:30.106369  6300 net.cpp:100] Creating Layer conv6_1_relu
I0206 07:36:30.106371  6300 net.cpp:434] conv6_1_relu <- conv6_1
I0206 07:36:30.106376  6300 net.cpp:395] conv6_1_relu -> conv6_1 (in-place)
I0206 07:36:30.106382  6300 net.cpp:150] Setting up conv6_1_relu
I0206 07:36:30.106389  6300 net.cpp:157] Top shape: 1 256 32 32 (262144)
I0206 07:36:30.106390  6300 net.cpp:165] Memory required for data: 680525984
I0206 07:36:30.106393  6300 layer_factory.hpp:77] Creating layer conv6_2
I0206 07:36:30.106400  6300 net.cpp:100] Creating Layer conv6_2
I0206 07:36:30.106405  6300 net.cpp:434] conv6_2 <- conv6_1
I0206 07:36:30.106410  6300 net.cpp:408] conv6_2 -> conv6_2
I0206 07:36:30.112442  6300 net.cpp:150] Setting up conv6_2
I0206 07:36:30.112459  6300 net.cpp:157] Top shape: 1 512 16 16 (131072)
I0206 07:36:30.112462  6300 net.cpp:165] Memory required for data: 681050272
I0206 07:36:30.112474  6300 layer_factory.hpp:77] Creating layer conv6_2_relu
I0206 07:36:30.112480  6300 net.cpp:100] Creating Layer conv6_2_relu
I0206 07:36:30.112485  6300 net.cpp:434] conv6_2_relu <- conv6_2
I0206 07:36:30.112490  6300 net.cpp:395] conv6_2_relu -> conv6_2 (in-place)
I0206 07:36:30.112498  6300 net.cpp:150] Setting up conv6_2_relu
I0206 07:36:30.112500  6300 net.cpp:157] Top shape: 1 512 16 16 (131072)
I0206 07:36:30.112502  6300 net.cpp:165] Memory required for data: 681574560
I0206 07:36:30.112505  6300 layer_factory.hpp:77] Creating layer conv6_2_conv6_2_relu_0_split
I0206 07:36:30.112510  6300 net.cpp:100] Creating Layer conv6_2_conv6_2_relu_0_split
I0206 07:36:30.112512  6300 net.cpp:434] conv6_2_conv6_2_relu_0_split <- conv6_2
I0206 07:36:30.112516  6300 net.cpp:408] conv6_2_conv6_2_relu_0_split -> conv6_2_conv6_2_relu_0_split_0
I0206 07:36:30.112521  6300 net.cpp:408] conv6_2_conv6_2_relu_0_split -> conv6_2_conv6_2_relu_0_split_1
I0206 07:36:30.112536  6300 net.cpp:408] conv6_2_conv6_2_relu_0_split -> conv6_2_conv6_2_relu_0_split_2
I0206 07:36:30.112541  6300 net.cpp:408] conv6_2_conv6_2_relu_0_split -> conv6_2_conv6_2_relu_0_split_3
I0206 07:36:30.112584  6300 net.cpp:150] Setting up conv6_2_conv6_2_relu_0_split
I0206 07:36:30.112591  6300 net.cpp:157] Top shape: 1 512 16 16 (131072)
I0206 07:36:30.112596  6300 net.cpp:157] Top shape: 1 512 16 16 (131072)
I0206 07:36:30.112601  6300 net.cpp:157] Top shape: 1 512 16 16 (131072)
I0206 07:36:30.112607  6300 net.cpp:157] Top shape: 1 512 16 16 (131072)
I0206 07:36:30.112609  6300 net.cpp:165] Memory required for data: 683671712
I0206 07:36:30.112614  6300 layer_factory.hpp:77] Creating layer conv7_1
I0206 07:36:30.112624  6300 net.cpp:100] Creating Layer conv7_1
I0206 07:36:30.112639  6300 net.cpp:434] conv7_1 <- conv6_2_conv6_2_relu_0_split_0
I0206 07:36:30.112648  6300 net.cpp:408] conv7_1 -> conv7_1
I0206 07:36:30.113106  6300 net.cpp:150] Setting up conv7_1
I0206 07:36:30.113114  6300 net.cpp:157] Top shape: 1 128 16 16 (32768)
I0206 07:36:30.113118  6300 net.cpp:165] Memory required for data: 683802784
I0206 07:36:30.113126  6300 layer_factory.hpp:77] Creating layer conv7_1_relu
I0206 07:36:30.113133  6300 net.cpp:100] Creating Layer conv7_1_relu
I0206 07:36:30.113142  6300 net.cpp:434] conv7_1_relu <- conv7_1
I0206 07:36:30.113148  6300 net.cpp:395] conv7_1_relu -> conv7_1 (in-place)
I0206 07:36:30.113157  6300 net.cpp:150] Setting up conv7_1_relu
I0206 07:36:30.113163  6300 net.cpp:157] Top shape: 1 128 16 16 (32768)
I0206 07:36:30.113168  6300 net.cpp:165] Memory required for data: 683933856
I0206 07:36:30.113173  6300 layer_factory.hpp:77] Creating layer conv7_2
I0206 07:36:30.113183  6300 net.cpp:100] Creating Layer conv7_2
I0206 07:36:30.113188  6300 net.cpp:434] conv7_2 <- conv7_1
I0206 07:36:30.113194  6300 net.cpp:408] conv7_2 -> conv7_2
I0206 07:36:30.115362  6300 net.cpp:150] Setting up conv7_2
I0206 07:36:30.115376  6300 net.cpp:157] Top shape: 1 256 8 8 (16384)
I0206 07:36:30.115381  6300 net.cpp:165] Memory required for data: 683999392
I0206 07:36:30.115406  6300 layer_factory.hpp:77] Creating layer conv7_2_relu
I0206 07:36:30.115414  6300 net.cpp:100] Creating Layer conv7_2_relu
I0206 07:36:30.115420  6300 net.cpp:434] conv7_2_relu <- conv7_2
I0206 07:36:30.115427  6300 net.cpp:395] conv7_2_relu -> conv7_2 (in-place)
I0206 07:36:30.115437  6300 net.cpp:150] Setting up conv7_2_relu
I0206 07:36:30.115443  6300 net.cpp:157] Top shape: 1 256 8 8 (16384)
I0206 07:36:30.115448  6300 net.cpp:165] Memory required for data: 684064928
I0206 07:36:30.115453  6300 layer_factory.hpp:77] Creating layer conv7_2_conv7_2_relu_0_split
I0206 07:36:30.115460  6300 net.cpp:100] Creating Layer conv7_2_conv7_2_relu_0_split
I0206 07:36:30.115465  6300 net.cpp:434] conv7_2_conv7_2_relu_0_split <- conv7_2
I0206 07:36:30.115471  6300 net.cpp:408] conv7_2_conv7_2_relu_0_split -> conv7_2_conv7_2_relu_0_split_0
I0206 07:36:30.115480  6300 net.cpp:408] conv7_2_conv7_2_relu_0_split -> conv7_2_conv7_2_relu_0_split_1
I0206 07:36:30.115489  6300 net.cpp:408] conv7_2_conv7_2_relu_0_split -> conv7_2_conv7_2_relu_0_split_2
I0206 07:36:30.115496  6300 net.cpp:408] conv7_2_conv7_2_relu_0_split -> conv7_2_conv7_2_relu_0_split_3
I0206 07:36:30.115552  6300 net.cpp:150] Setting up conv7_2_conv7_2_relu_0_split
I0206 07:36:30.115559  6300 net.cpp:157] Top shape: 1 256 8 8 (16384)
I0206 07:36:30.115564  6300 net.cpp:157] Top shape: 1 256 8 8 (16384)
I0206 07:36:30.115571  6300 net.cpp:157] Top shape: 1 256 8 8 (16384)
I0206 07:36:30.115577  6300 net.cpp:157] Top shape: 1 256 8 8 (16384)
I0206 07:36:30.115581  6300 net.cpp:165] Memory required for data: 684327072
I0206 07:36:30.115586  6300 layer_factory.hpp:77] Creating layer conv8_1
I0206 07:36:30.115597  6300 net.cpp:100] Creating Layer conv8_1
I0206 07:36:30.115602  6300 net.cpp:434] conv8_1 <- conv7_2_conv7_2_relu_0_split_0
I0206 07:36:30.115610  6300 net.cpp:408] conv8_1 -> conv8_1
I0206 07:36:30.115928  6300 net.cpp:150] Setting up conv8_1
I0206 07:36:30.115937  6300 net.cpp:157] Top shape: 1 128 8 8 (8192)
I0206 07:36:30.115941  6300 net.cpp:165] Memory required for data: 684359840
I0206 07:36:30.115948  6300 layer_factory.hpp:77] Creating layer conv8_1_relu
I0206 07:36:30.115957  6300 net.cpp:100] Creating Layer conv8_1_relu
I0206 07:36:30.115962  6300 net.cpp:434] conv8_1_relu <- conv8_1
I0206 07:36:30.115967  6300 net.cpp:395] conv8_1_relu -> conv8_1 (in-place)
I0206 07:36:30.115977  6300 net.cpp:150] Setting up conv8_1_relu
I0206 07:36:30.115983  6300 net.cpp:157] Top shape: 1 128 8 8 (8192)
I0206 07:36:30.115988  6300 net.cpp:165] Memory required for data: 684392608
I0206 07:36:30.115993  6300 layer_factory.hpp:77] Creating layer conv8_2
I0206 07:36:30.116001  6300 net.cpp:100] Creating Layer conv8_2
I0206 07:36:30.116006  6300 net.cpp:434] conv8_2 <- conv8_1
I0206 07:36:30.116014  6300 net.cpp:408] conv8_2 -> conv8_2
I0206 07:36:30.118201  6300 net.cpp:150] Setting up conv8_2
I0206 07:36:30.118213  6300 net.cpp:157] Top shape: 1 256 4 4 (4096)
I0206 07:36:30.118218  6300 net.cpp:165] Memory required for data: 684408992
I0206 07:36:30.118227  6300 layer_factory.hpp:77] Creating layer conv8_2_relu
I0206 07:36:30.118235  6300 net.cpp:100] Creating Layer conv8_2_relu
I0206 07:36:30.118242  6300 net.cpp:434] conv8_2_relu <- conv8_2
I0206 07:36:30.118248  6300 net.cpp:395] conv8_2_relu -> conv8_2 (in-place)
I0206 07:36:30.118257  6300 net.cpp:150] Setting up conv8_2_relu
I0206 07:36:30.118264  6300 net.cpp:157] Top shape: 1 256 4 4 (4096)
I0206 07:36:30.118269  6300 net.cpp:165] Memory required for data: 684425376
I0206 07:36:30.118274  6300 layer_factory.hpp:77] Creating layer conv8_2_conv8_2_relu_0_split
I0206 07:36:30.118281  6300 net.cpp:100] Creating Layer conv8_2_conv8_2_relu_0_split
I0206 07:36:30.118286  6300 net.cpp:434] conv8_2_conv8_2_relu_0_split <- conv8_2
I0206 07:36:30.118293  6300 net.cpp:408] conv8_2_conv8_2_relu_0_split -> conv8_2_conv8_2_relu_0_split_0
I0206 07:36:30.118301  6300 net.cpp:408] conv8_2_conv8_2_relu_0_split -> conv8_2_conv8_2_relu_0_split_1
I0206 07:36:30.118310  6300 net.cpp:408] conv8_2_conv8_2_relu_0_split -> conv8_2_conv8_2_relu_0_split_2
I0206 07:36:30.118330  6300 net.cpp:408] conv8_2_conv8_2_relu_0_split -> conv8_2_conv8_2_relu_0_split_3
I0206 07:36:30.118389  6300 net.cpp:150] Setting up conv8_2_conv8_2_relu_0_split
I0206 07:36:30.118396  6300 net.cpp:157] Top shape: 1 256 4 4 (4096)
I0206 07:36:30.118402  6300 net.cpp:157] Top shape: 1 256 4 4 (4096)
I0206 07:36:30.118408  6300 net.cpp:157] Top shape: 1 256 4 4 (4096)
I0206 07:36:30.118414  6300 net.cpp:157] Top shape: 1 256 4 4 (4096)
I0206 07:36:30.118419  6300 net.cpp:165] Memory required for data: 684490912
I0206 07:36:30.118423  6300 layer_factory.hpp:77] Creating layer conv9_1
I0206 07:36:30.118434  6300 net.cpp:100] Creating Layer conv9_1
I0206 07:36:30.118439  6300 net.cpp:434] conv9_1 <- conv8_2_conv8_2_relu_0_split_0
I0206 07:36:30.118448  6300 net.cpp:408] conv9_1 -> conv9_1
I0206 07:36:30.118764  6300 net.cpp:150] Setting up conv9_1
I0206 07:36:30.118772  6300 net.cpp:157] Top shape: 1 128 4 4 (2048)
I0206 07:36:30.118775  6300 net.cpp:165] Memory required for data: 684499104
I0206 07:36:30.118783  6300 layer_factory.hpp:77] Creating layer conv9_1_relu
I0206 07:36:30.118791  6300 net.cpp:100] Creating Layer conv9_1_relu
I0206 07:36:30.118796  6300 net.cpp:434] conv9_1_relu <- conv9_1
I0206 07:36:30.118803  6300 net.cpp:395] conv9_1_relu -> conv9_1 (in-place)
I0206 07:36:30.118810  6300 net.cpp:150] Setting up conv9_1_relu
I0206 07:36:30.118818  6300 net.cpp:157] Top shape: 1 128 4 4 (2048)
I0206 07:36:30.118822  6300 net.cpp:165] Memory required for data: 684507296
I0206 07:36:30.118826  6300 layer_factory.hpp:77] Creating layer conv9_2
I0206 07:36:30.118837  6300 net.cpp:100] Creating Layer conv9_2
I0206 07:36:30.118841  6300 net.cpp:434] conv9_2 <- conv9_1
I0206 07:36:30.118849  6300 net.cpp:408] conv9_2 -> conv9_2
I0206 07:36:30.121026  6300 net.cpp:150] Setting up conv9_2
I0206 07:36:30.121042  6300 net.cpp:157] Top shape: 1 256 2 2 (1024)
I0206 07:36:30.121045  6300 net.cpp:165] Memory required for data: 684511392
I0206 07:36:30.121053  6300 layer_factory.hpp:77] Creating layer conv9_2_relu
I0206 07:36:30.121062  6300 net.cpp:100] Creating Layer conv9_2_relu
I0206 07:36:30.121068  6300 net.cpp:434] conv9_2_relu <- conv9_2
I0206 07:36:30.121074  6300 net.cpp:395] conv9_2_relu -> conv9_2 (in-place)
I0206 07:36:30.121084  6300 net.cpp:150] Setting up conv9_2_relu
I0206 07:36:30.121090  6300 net.cpp:157] Top shape: 1 256 2 2 (1024)
I0206 07:36:30.121095  6300 net.cpp:165] Memory required for data: 684515488
I0206 07:36:30.121100  6300 layer_factory.hpp:77] Creating layer conv9_2_conv9_2_relu_0_split
I0206 07:36:30.121109  6300 net.cpp:100] Creating Layer conv9_2_conv9_2_relu_0_split
I0206 07:36:30.121114  6300 net.cpp:434] conv9_2_conv9_2_relu_0_split <- conv9_2
I0206 07:36:30.121120  6300 net.cpp:408] conv9_2_conv9_2_relu_0_split -> conv9_2_conv9_2_relu_0_split_0
I0206 07:36:30.121129  6300 net.cpp:408] conv9_2_conv9_2_relu_0_split -> conv9_2_conv9_2_relu_0_split_1
I0206 07:36:30.121137  6300 net.cpp:408] conv9_2_conv9_2_relu_0_split -> conv9_2_conv9_2_relu_0_split_2
I0206 07:36:30.121145  6300 net.cpp:408] conv9_2_conv9_2_relu_0_split -> conv9_2_conv9_2_relu_0_split_3
I0206 07:36:30.121197  6300 net.cpp:150] Setting up conv9_2_conv9_2_relu_0_split
I0206 07:36:30.121204  6300 net.cpp:157] Top shape: 1 256 2 2 (1024)
I0206 07:36:30.121209  6300 net.cpp:157] Top shape: 1 256 2 2 (1024)
I0206 07:36:30.121217  6300 net.cpp:157] Top shape: 1 256 2 2 (1024)
I0206 07:36:30.121222  6300 net.cpp:157] Top shape: 1 256 2 2 (1024)
I0206 07:36:30.121227  6300 net.cpp:165] Memory required for data: 684531872
I0206 07:36:30.121232  6300 layer_factory.hpp:77] Creating layer conv10_1
I0206 07:36:30.121243  6300 net.cpp:100] Creating Layer conv10_1
I0206 07:36:30.121248  6300 net.cpp:434] conv10_1 <- conv9_2_conv9_2_relu_0_split_0
I0206 07:36:30.121255  6300 net.cpp:408] conv10_1 -> conv10_1
I0206 07:36:30.121577  6300 net.cpp:150] Setting up conv10_1
I0206 07:36:30.121584  6300 net.cpp:157] Top shape: 1 128 2 2 (512)
I0206 07:36:30.121588  6300 net.cpp:165] Memory required for data: 684533920
I0206 07:36:30.121613  6300 layer_factory.hpp:77] Creating layer conv10_1_relu
I0206 07:36:30.121620  6300 net.cpp:100] Creating Layer conv10_1_relu
I0206 07:36:30.121625  6300 net.cpp:434] conv10_1_relu <- conv10_1
I0206 07:36:30.121632  6300 net.cpp:395] conv10_1_relu -> conv10_1 (in-place)
I0206 07:36:30.121640  6300 net.cpp:150] Setting up conv10_1_relu
I0206 07:36:30.121647  6300 net.cpp:157] Top shape: 1 128 2 2 (512)
I0206 07:36:30.121652  6300 net.cpp:165] Memory required for data: 684535968
I0206 07:36:30.121656  6300 layer_factory.hpp:77] Creating layer conv10_2
I0206 07:36:30.121666  6300 net.cpp:100] Creating Layer conv10_2
I0206 07:36:30.121670  6300 net.cpp:434] conv10_2 <- conv10_1
I0206 07:36:30.121677  6300 net.cpp:408] conv10_2 -> conv10_2
I0206 07:36:30.124729  6300 net.cpp:150] Setting up conv10_2
I0206 07:36:30.124744  6300 net.cpp:157] Top shape: 1 256 1 1 (256)
I0206 07:36:30.124748  6300 net.cpp:165] Memory required for data: 684536992
I0206 07:36:30.124758  6300 layer_factory.hpp:77] Creating layer conv10_2_relu
I0206 07:36:30.124765  6300 net.cpp:100] Creating Layer conv10_2_relu
I0206 07:36:30.124773  6300 net.cpp:434] conv10_2_relu <- conv10_2
I0206 07:36:30.124779  6300 net.cpp:395] conv10_2_relu -> conv10_2 (in-place)
I0206 07:36:30.124788  6300 net.cpp:150] Setting up conv10_2_relu
I0206 07:36:30.124795  6300 net.cpp:157] Top shape: 1 256 1 1 (256)
I0206 07:36:30.124800  6300 net.cpp:165] Memory required for data: 684538016
I0206 07:36:30.124805  6300 layer_factory.hpp:77] Creating layer conv10_2_conv10_2_relu_0_split
I0206 07:36:30.124811  6300 net.cpp:100] Creating Layer conv10_2_conv10_2_relu_0_split
I0206 07:36:30.124816  6300 net.cpp:434] conv10_2_conv10_2_relu_0_split <- conv10_2
I0206 07:36:30.124822  6300 net.cpp:408] conv10_2_conv10_2_relu_0_split -> conv10_2_conv10_2_relu_0_split_0
I0206 07:36:30.124831  6300 net.cpp:408] conv10_2_conv10_2_relu_0_split -> conv10_2_conv10_2_relu_0_split_1
I0206 07:36:30.124840  6300 net.cpp:408] conv10_2_conv10_2_relu_0_split -> conv10_2_conv10_2_relu_0_split_2
I0206 07:36:30.124889  6300 net.cpp:150] Setting up conv10_2_conv10_2_relu_0_split
I0206 07:36:30.124897  6300 net.cpp:157] Top shape: 1 256 1 1 (256)
I0206 07:36:30.124902  6300 net.cpp:157] Top shape: 1 256 1 1 (256)
I0206 07:36:30.124908  6300 net.cpp:157] Top shape: 1 256 1 1 (256)
I0206 07:36:30.124913  6300 net.cpp:165] Memory required for data: 684541088
I0206 07:36:30.124918  6300 layer_factory.hpp:77] Creating layer conv4_3_norm
I0206 07:36:30.124931  6300 net.cpp:100] Creating Layer conv4_3_norm
I0206 07:36:30.124936  6300 net.cpp:434] conv4_3_norm <- conv4_3_relu4_3_0_split_1
I0206 07:36:30.124943  6300 net.cpp:408] conv4_3_norm -> conv4_3_norm
I0206 07:36:30.125067  6300 net.cpp:150] Setting up conv4_3_norm
I0206 07:36:30.125074  6300 net.cpp:157] Top shape: 1 512 64 64 (2097152)
I0206 07:36:30.125078  6300 net.cpp:165] Memory required for data: 692929696
I0206 07:36:30.125085  6300 layer_factory.hpp:77] Creating layer conv4_3_norm_conv4_3_norm_0_split
I0206 07:36:30.125093  6300 net.cpp:100] Creating Layer conv4_3_norm_conv4_3_norm_0_split
I0206 07:36:30.125098  6300 net.cpp:434] conv4_3_norm_conv4_3_norm_0_split <- conv4_3_norm
I0206 07:36:30.125104  6300 net.cpp:408] conv4_3_norm_conv4_3_norm_0_split -> conv4_3_norm_conv4_3_norm_0_split_0
I0206 07:36:30.125113  6300 net.cpp:408] conv4_3_norm_conv4_3_norm_0_split -> conv4_3_norm_conv4_3_norm_0_split_1
I0206 07:36:30.125121  6300 net.cpp:408] conv4_3_norm_conv4_3_norm_0_split -> conv4_3_norm_conv4_3_norm_0_split_2
I0206 07:36:30.125162  6300 net.cpp:150] Setting up conv4_3_norm_conv4_3_norm_0_split
I0206 07:36:30.125169  6300 net.cpp:157] Top shape: 1 512 64 64 (2097152)
I0206 07:36:30.125174  6300 net.cpp:157] Top shape: 1 512 64 64 (2097152)
I0206 07:36:30.125180  6300 net.cpp:157] Top shape: 1 512 64 64 (2097152)
I0206 07:36:30.125183  6300 net.cpp:165] Memory required for data: 718095520
I0206 07:36:30.125188  6300 layer_factory.hpp:77] Creating layer conv4_3_norm_mbox_loc
I0206 07:36:30.125214  6300 net.cpp:100] Creating Layer conv4_3_norm_mbox_loc
I0206 07:36:30.125219  6300 net.cpp:434] conv4_3_norm_mbox_loc <- conv4_3_norm_conv4_3_norm_0_split_0
I0206 07:36:30.125227  6300 net.cpp:408] conv4_3_norm_mbox_loc -> conv4_3_norm_mbox_loc
I0206 07:36:30.125718  6300 net.cpp:150] Setting up conv4_3_norm_mbox_loc
I0206 07:36:30.125727  6300 net.cpp:157] Top shape: 1 16 64 64 (65536)
I0206 07:36:30.125731  6300 net.cpp:165] Memory required for data: 718357664
I0206 07:36:30.125738  6300 layer_factory.hpp:77] Creating layer conv4_3_norm_mbox_loc_perm
I0206 07:36:30.125748  6300 net.cpp:100] Creating Layer conv4_3_norm_mbox_loc_perm
I0206 07:36:30.125754  6300 net.cpp:434] conv4_3_norm_mbox_loc_perm <- conv4_3_norm_mbox_loc
I0206 07:36:30.125761  6300 net.cpp:408] conv4_3_norm_mbox_loc_perm -> conv4_3_norm_mbox_loc_perm
I0206 07:36:30.125840  6300 net.cpp:150] Setting up conv4_3_norm_mbox_loc_perm
I0206 07:36:30.125847  6300 net.cpp:157] Top shape: 1 64 64 16 (65536)
I0206 07:36:30.125851  6300 net.cpp:165] Memory required for data: 718619808
I0206 07:36:30.125855  6300 layer_factory.hpp:77] Creating layer conv4_3_norm_mbox_loc_flat
I0206 07:36:30.125864  6300 net.cpp:100] Creating Layer conv4_3_norm_mbox_loc_flat
I0206 07:36:30.125869  6300 net.cpp:434] conv4_3_norm_mbox_loc_flat <- conv4_3_norm_mbox_loc_perm
I0206 07:36:30.125875  6300 net.cpp:408] conv4_3_norm_mbox_loc_flat -> conv4_3_norm_mbox_loc_flat
I0206 07:36:30.125900  6300 net.cpp:150] Setting up conv4_3_norm_mbox_loc_flat
I0206 07:36:30.125905  6300 net.cpp:157] Top shape: 1 65536 (65536)
I0206 07:36:30.125910  6300 net.cpp:165] Memory required for data: 718881952
I0206 07:36:30.125913  6300 layer_factory.hpp:77] Creating layer conv4_3_norm_mbox_conf
I0206 07:36:30.125924  6300 net.cpp:100] Creating Layer conv4_3_norm_mbox_conf
I0206 07:36:30.125929  6300 net.cpp:434] conv4_3_norm_mbox_conf <- conv4_3_norm_conv4_3_norm_0_split_1
I0206 07:36:30.125937  6300 net.cpp:408] conv4_3_norm_mbox_conf -> conv4_3_norm_mbox_conf
I0206 07:36:30.126497  6300 net.cpp:150] Setting up conv4_3_norm_mbox_conf
I0206 07:36:30.126504  6300 net.cpp:157] Top shape: 1 20 64 64 (81920)
I0206 07:36:30.126508  6300 net.cpp:165] Memory required for data: 719209632
I0206 07:36:30.126516  6300 layer_factory.hpp:77] Creating layer conv4_3_norm_mbox_conf_perm
I0206 07:36:30.126524  6300 net.cpp:100] Creating Layer conv4_3_norm_mbox_conf_perm
I0206 07:36:30.126530  6300 net.cpp:434] conv4_3_norm_mbox_conf_perm <- conv4_3_norm_mbox_conf
I0206 07:36:30.126536  6300 net.cpp:408] conv4_3_norm_mbox_conf_perm -> conv4_3_norm_mbox_conf_perm
I0206 07:36:30.126616  6300 net.cpp:150] Setting up conv4_3_norm_mbox_conf_perm
I0206 07:36:30.126623  6300 net.cpp:157] Top shape: 1 64 64 20 (81920)
I0206 07:36:30.126627  6300 net.cpp:165] Memory required for data: 719537312
I0206 07:36:30.126631  6300 layer_factory.hpp:77] Creating layer conv4_3_norm_mbox_conf_flat
I0206 07:36:30.126637  6300 net.cpp:100] Creating Layer conv4_3_norm_mbox_conf_flat
I0206 07:36:30.126643  6300 net.cpp:434] conv4_3_norm_mbox_conf_flat <- conv4_3_norm_mbox_conf_perm
I0206 07:36:30.126649  6300 net.cpp:408] conv4_3_norm_mbox_conf_flat -> conv4_3_norm_mbox_conf_flat
I0206 07:36:30.126672  6300 net.cpp:150] Setting up conv4_3_norm_mbox_conf_flat
I0206 07:36:30.126678  6300 net.cpp:157] Top shape: 1 81920 (81920)
I0206 07:36:30.126682  6300 net.cpp:165] Memory required for data: 719864992
I0206 07:36:30.126687  6300 layer_factory.hpp:77] Creating layer conv4_3_norm_mbox_priorbox
I0206 07:36:30.126695  6300 net.cpp:100] Creating Layer conv4_3_norm_mbox_priorbox
I0206 07:36:30.126700  6300 net.cpp:434] conv4_3_norm_mbox_priorbox <- conv4_3_norm_conv4_3_norm_0_split_2
I0206 07:36:30.126706  6300 net.cpp:434] conv4_3_norm_mbox_priorbox <- data_data_0_split_1
I0206 07:36:30.126715  6300 net.cpp:408] conv4_3_norm_mbox_priorbox -> conv4_3_norm_mbox_priorbox
I0206 07:36:30.126741  6300 net.cpp:150] Setting up conv4_3_norm_mbox_priorbox
I0206 07:36:30.126747  6300 net.cpp:157] Top shape: 1 2 65536 (131072)
I0206 07:36:30.126761  6300 net.cpp:165] Memory required for data: 720389280
I0206 07:36:30.126765  6300 layer_factory.hpp:77] Creating layer fc7_mbox_loc
I0206 07:36:30.126775  6300 net.cpp:100] Creating Layer fc7_mbox_loc
I0206 07:36:30.126780  6300 net.cpp:434] fc7_mbox_loc <- fc7_relu7_0_split_1
I0206 07:36:30.126788  6300 net.cpp:408] fc7_mbox_loc -> fc7_mbox_loc
I0206 07:36:30.127862  6300 net.cpp:150] Setting up fc7_mbox_loc
I0206 07:36:30.127871  6300 net.cpp:157] Top shape: 1 24 32 32 (24576)
I0206 07:36:30.127876  6300 net.cpp:165] Memory required for data: 720487584
I0206 07:36:30.127883  6300 layer_factory.hpp:77] Creating layer fc7_mbox_loc_perm
I0206 07:36:30.127892  6300 net.cpp:100] Creating Layer fc7_mbox_loc_perm
I0206 07:36:30.127897  6300 net.cpp:434] fc7_mbox_loc_perm <- fc7_mbox_loc
I0206 07:36:30.127904  6300 net.cpp:408] fc7_mbox_loc_perm -> fc7_mbox_loc_perm
I0206 07:36:30.127985  6300 net.cpp:150] Setting up fc7_mbox_loc_perm
I0206 07:36:30.127991  6300 net.cpp:157] Top shape: 1 32 32 24 (24576)
I0206 07:36:30.127995  6300 net.cpp:165] Memory required for data: 720585888
I0206 07:36:30.128000  6300 layer_factory.hpp:77] Creating layer fc7_mbox_loc_flat
I0206 07:36:30.128006  6300 net.cpp:100] Creating Layer fc7_mbox_loc_flat
I0206 07:36:30.128011  6300 net.cpp:434] fc7_mbox_loc_flat <- fc7_mbox_loc_perm
I0206 07:36:30.128017  6300 net.cpp:408] fc7_mbox_loc_flat -> fc7_mbox_loc_flat
I0206 07:36:30.128041  6300 net.cpp:150] Setting up fc7_mbox_loc_flat
I0206 07:36:30.128047  6300 net.cpp:157] Top shape: 1 24576 (24576)
I0206 07:36:30.128051  6300 net.cpp:165] Memory required for data: 720684192
I0206 07:36:30.128056  6300 layer_factory.hpp:77] Creating layer fc7_mbox_conf
I0206 07:36:30.128064  6300 net.cpp:100] Creating Layer fc7_mbox_conf
I0206 07:36:30.128070  6300 net.cpp:434] fc7_mbox_conf <- fc7_relu7_0_split_2
I0206 07:36:30.128079  6300 net.cpp:408] fc7_mbox_conf -> fc7_mbox_conf
I0206 07:36:30.130197  6300 net.cpp:150] Setting up fc7_mbox_conf
I0206 07:36:30.130209  6300 net.cpp:157] Top shape: 1 30 32 32 (30720)
I0206 07:36:30.130213  6300 net.cpp:165] Memory required for data: 720807072
I0206 07:36:30.130221  6300 layer_factory.hpp:77] Creating layer fc7_mbox_conf_perm
I0206 07:36:30.130230  6300 net.cpp:100] Creating Layer fc7_mbox_conf_perm
I0206 07:36:30.130236  6300 net.cpp:434] fc7_mbox_conf_perm <- fc7_mbox_conf
I0206 07:36:30.130244  6300 net.cpp:408] fc7_mbox_conf_perm -> fc7_mbox_conf_perm
I0206 07:36:30.130327  6300 net.cpp:150] Setting up fc7_mbox_conf_perm
I0206 07:36:30.130336  6300 net.cpp:157] Top shape: 1 32 32 30 (30720)
I0206 07:36:30.130339  6300 net.cpp:165] Memory required for data: 720929952
I0206 07:36:30.130343  6300 layer_factory.hpp:77] Creating layer fc7_mbox_conf_flat
I0206 07:36:30.130352  6300 net.cpp:100] Creating Layer fc7_mbox_conf_flat
I0206 07:36:30.130357  6300 net.cpp:434] fc7_mbox_conf_flat <- fc7_mbox_conf_perm
I0206 07:36:30.130364  6300 net.cpp:408] fc7_mbox_conf_flat -> fc7_mbox_conf_flat
I0206 07:36:30.130389  6300 net.cpp:150] Setting up fc7_mbox_conf_flat
I0206 07:36:30.130395  6300 net.cpp:157] Top shape: 1 30720 (30720)
I0206 07:36:30.130399  6300 net.cpp:165] Memory required for data: 721052832
I0206 07:36:30.130404  6300 layer_factory.hpp:77] Creating layer fc7_mbox_priorbox
I0206 07:36:30.130412  6300 net.cpp:100] Creating Layer fc7_mbox_priorbox
I0206 07:36:30.130419  6300 net.cpp:434] fc7_mbox_priorbox <- fc7_relu7_0_split_3
I0206 07:36:30.130424  6300 net.cpp:434] fc7_mbox_priorbox <- data_data_0_split_2
I0206 07:36:30.130431  6300 net.cpp:408] fc7_mbox_priorbox -> fc7_mbox_priorbox
I0206 07:36:30.130457  6300 net.cpp:150] Setting up fc7_mbox_priorbox
I0206 07:36:30.130465  6300 net.cpp:157] Top shape: 1 2 24576 (49152)
I0206 07:36:30.130468  6300 net.cpp:165] Memory required for data: 721249440
I0206 07:36:30.130472  6300 layer_factory.hpp:77] Creating layer conv6_2_mbox_loc
I0206 07:36:30.130482  6300 net.cpp:100] Creating Layer conv6_2_mbox_loc
I0206 07:36:30.130487  6300 net.cpp:434] conv6_2_mbox_loc <- conv6_2_conv6_2_relu_0_split_1
I0206 07:36:30.130511  6300 net.cpp:408] conv6_2_mbox_loc -> conv6_2_mbox_loc
I0206 07:36:30.131124  6300 net.cpp:150] Setting up conv6_2_mbox_loc
I0206 07:36:30.131132  6300 net.cpp:157] Top shape: 1 24 16 16 (6144)
I0206 07:36:30.131153  6300 net.cpp:165] Memory required for data: 721274016
I0206 07:36:30.131161  6300 layer_factory.hpp:77] Creating layer conv6_2_mbox_loc_perm
I0206 07:36:30.131170  6300 net.cpp:100] Creating Layer conv6_2_mbox_loc_perm
I0206 07:36:30.131176  6300 net.cpp:434] conv6_2_mbox_loc_perm <- conv6_2_mbox_loc
I0206 07:36:30.131184  6300 net.cpp:408] conv6_2_mbox_loc_perm -> conv6_2_mbox_loc_perm
I0206 07:36:30.131263  6300 net.cpp:150] Setting up conv6_2_mbox_loc_perm
I0206 07:36:30.131270  6300 net.cpp:157] Top shape: 1 16 16 24 (6144)
I0206 07:36:30.131274  6300 net.cpp:165] Memory required for data: 721298592
I0206 07:36:30.131278  6300 layer_factory.hpp:77] Creating layer conv6_2_mbox_loc_flat
I0206 07:36:30.131284  6300 net.cpp:100] Creating Layer conv6_2_mbox_loc_flat
I0206 07:36:30.131290  6300 net.cpp:434] conv6_2_mbox_loc_flat <- conv6_2_mbox_loc_perm
I0206 07:36:30.131296  6300 net.cpp:408] conv6_2_mbox_loc_flat -> conv6_2_mbox_loc_flat
I0206 07:36:30.131320  6300 net.cpp:150] Setting up conv6_2_mbox_loc_flat
I0206 07:36:30.131326  6300 net.cpp:157] Top shape: 1 6144 (6144)
I0206 07:36:30.131330  6300 net.cpp:165] Memory required for data: 721323168
I0206 07:36:30.131335  6300 layer_factory.hpp:77] Creating layer conv6_2_mbox_conf
I0206 07:36:30.131343  6300 net.cpp:100] Creating Layer conv6_2_mbox_conf
I0206 07:36:30.131348  6300 net.cpp:434] conv6_2_mbox_conf <- conv6_2_conv6_2_relu_0_split_2
I0206 07:36:30.131356  6300 net.cpp:408] conv6_2_mbox_conf -> conv6_2_mbox_conf
I0206 07:36:30.132094  6300 net.cpp:150] Setting up conv6_2_mbox_conf
I0206 07:36:30.132102  6300 net.cpp:157] Top shape: 1 30 16 16 (7680)
I0206 07:36:30.132105  6300 net.cpp:165] Memory required for data: 721353888
I0206 07:36:30.132113  6300 layer_factory.hpp:77] Creating layer conv6_2_mbox_conf_perm
I0206 07:36:30.132122  6300 net.cpp:100] Creating Layer conv6_2_mbox_conf_perm
I0206 07:36:30.132128  6300 net.cpp:434] conv6_2_mbox_conf_perm <- conv6_2_mbox_conf
I0206 07:36:30.132136  6300 net.cpp:408] conv6_2_mbox_conf_perm -> conv6_2_mbox_conf_perm
I0206 07:36:30.132215  6300 net.cpp:150] Setting up conv6_2_mbox_conf_perm
I0206 07:36:30.132221  6300 net.cpp:157] Top shape: 1 16 16 30 (7680)
I0206 07:36:30.132225  6300 net.cpp:165] Memory required for data: 721384608
I0206 07:36:30.132230  6300 layer_factory.hpp:77] Creating layer conv6_2_mbox_conf_flat
I0206 07:36:30.132236  6300 net.cpp:100] Creating Layer conv6_2_mbox_conf_flat
I0206 07:36:30.132242  6300 net.cpp:434] conv6_2_mbox_conf_flat <- conv6_2_mbox_conf_perm
I0206 07:36:30.132249  6300 net.cpp:408] conv6_2_mbox_conf_flat -> conv6_2_mbox_conf_flat
I0206 07:36:30.132272  6300 net.cpp:150] Setting up conv6_2_mbox_conf_flat
I0206 07:36:30.132279  6300 net.cpp:157] Top shape: 1 7680 (7680)
I0206 07:36:30.132283  6300 net.cpp:165] Memory required for data: 721415328
I0206 07:36:30.132287  6300 layer_factory.hpp:77] Creating layer conv6_2_mbox_priorbox
I0206 07:36:30.132294  6300 net.cpp:100] Creating Layer conv6_2_mbox_priorbox
I0206 07:36:30.132299  6300 net.cpp:434] conv6_2_mbox_priorbox <- conv6_2_conv6_2_relu_0_split_3
I0206 07:36:30.132305  6300 net.cpp:434] conv6_2_mbox_priorbox <- data_data_0_split_3
I0206 07:36:30.132313  6300 net.cpp:408] conv6_2_mbox_priorbox -> conv6_2_mbox_priorbox
I0206 07:36:30.132339  6300 net.cpp:150] Setting up conv6_2_mbox_priorbox
I0206 07:36:30.132345  6300 net.cpp:157] Top shape: 1 2 6144 (12288)
I0206 07:36:30.132349  6300 net.cpp:165] Memory required for data: 721464480
I0206 07:36:30.132354  6300 layer_factory.hpp:77] Creating layer conv7_2_mbox_loc
I0206 07:36:30.132364  6300 net.cpp:100] Creating Layer conv7_2_mbox_loc
I0206 07:36:30.132367  6300 net.cpp:434] conv7_2_mbox_loc <- conv7_2_conv7_2_relu_0_split_1
I0206 07:36:30.132375  6300 net.cpp:408] conv7_2_mbox_loc -> conv7_2_mbox_loc
I0206 07:36:30.132796  6300 net.cpp:150] Setting up conv7_2_mbox_loc
I0206 07:36:30.132812  6300 net.cpp:157] Top shape: 1 24 8 8 (1536)
I0206 07:36:30.132817  6300 net.cpp:165] Memory required for data: 721470624
I0206 07:36:30.132833  6300 layer_factory.hpp:77] Creating layer conv7_2_mbox_loc_perm
I0206 07:36:30.132841  6300 net.cpp:100] Creating Layer conv7_2_mbox_loc_perm
I0206 07:36:30.132848  6300 net.cpp:434] conv7_2_mbox_loc_perm <- conv7_2_mbox_loc
I0206 07:36:30.132854  6300 net.cpp:408] conv7_2_mbox_loc_perm -> conv7_2_mbox_loc_perm
I0206 07:36:30.132936  6300 net.cpp:150] Setting up conv7_2_mbox_loc_perm
I0206 07:36:30.132943  6300 net.cpp:157] Top shape: 1 8 8 24 (1536)
I0206 07:36:30.132947  6300 net.cpp:165] Memory required for data: 721476768
I0206 07:36:30.132951  6300 layer_factory.hpp:77] Creating layer conv7_2_mbox_loc_flat
I0206 07:36:30.132958  6300 net.cpp:100] Creating Layer conv7_2_mbox_loc_flat
I0206 07:36:30.132964  6300 net.cpp:434] conv7_2_mbox_loc_flat <- conv7_2_mbox_loc_perm
I0206 07:36:30.132971  6300 net.cpp:408] conv7_2_mbox_loc_flat -> conv7_2_mbox_loc_flat
I0206 07:36:30.132994  6300 net.cpp:150] Setting up conv7_2_mbox_loc_flat
I0206 07:36:30.133000  6300 net.cpp:157] Top shape: 1 1536 (1536)
I0206 07:36:30.133004  6300 net.cpp:165] Memory required for data: 721482912
I0206 07:36:30.133008  6300 layer_factory.hpp:77] Creating layer conv7_2_mbox_conf
I0206 07:36:30.133018  6300 net.cpp:100] Creating Layer conv7_2_mbox_conf
I0206 07:36:30.133024  6300 net.cpp:434] conv7_2_mbox_conf <- conv7_2_conv7_2_relu_0_split_2
I0206 07:36:30.133031  6300 net.cpp:408] conv7_2_mbox_conf -> conv7_2_mbox_conf
I0206 07:36:30.133491  6300 net.cpp:150] Setting up conv7_2_mbox_conf
I0206 07:36:30.133497  6300 net.cpp:157] Top shape: 1 30 8 8 (1920)
I0206 07:36:30.133502  6300 net.cpp:165] Memory required for data: 721490592
I0206 07:36:30.133508  6300 layer_factory.hpp:77] Creating layer conv7_2_mbox_conf_perm
I0206 07:36:30.133517  6300 net.cpp:100] Creating Layer conv7_2_mbox_conf_perm
I0206 07:36:30.133523  6300 net.cpp:434] conv7_2_mbox_conf_perm <- conv7_2_mbox_conf
I0206 07:36:30.133532  6300 net.cpp:408] conv7_2_mbox_conf_perm -> conv7_2_mbox_conf_perm
I0206 07:36:30.133611  6300 net.cpp:150] Setting up conv7_2_mbox_conf_perm
I0206 07:36:30.133618  6300 net.cpp:157] Top shape: 1 8 8 30 (1920)
I0206 07:36:30.133622  6300 net.cpp:165] Memory required for data: 721498272
I0206 07:36:30.133626  6300 layer_factory.hpp:77] Creating layer conv7_2_mbox_conf_flat
I0206 07:36:30.133633  6300 net.cpp:100] Creating Layer conv7_2_mbox_conf_flat
I0206 07:36:30.133639  6300 net.cpp:434] conv7_2_mbox_conf_flat <- conv7_2_mbox_conf_perm
I0206 07:36:30.133646  6300 net.cpp:408] conv7_2_mbox_conf_flat -> conv7_2_mbox_conf_flat
I0206 07:36:30.133669  6300 net.cpp:150] Setting up conv7_2_mbox_conf_flat
I0206 07:36:30.133675  6300 net.cpp:157] Top shape: 1 1920 (1920)
I0206 07:36:30.133679  6300 net.cpp:165] Memory required for data: 721505952
I0206 07:36:30.133683  6300 layer_factory.hpp:77] Creating layer conv7_2_mbox_priorbox
I0206 07:36:30.133690  6300 net.cpp:100] Creating Layer conv7_2_mbox_priorbox
I0206 07:36:30.133695  6300 net.cpp:434] conv7_2_mbox_priorbox <- conv7_2_conv7_2_relu_0_split_3
I0206 07:36:30.133702  6300 net.cpp:434] conv7_2_mbox_priorbox <- data_data_0_split_4
I0206 07:36:30.133708  6300 net.cpp:408] conv7_2_mbox_priorbox -> conv7_2_mbox_priorbox
I0206 07:36:30.133734  6300 net.cpp:150] Setting up conv7_2_mbox_priorbox
I0206 07:36:30.133740  6300 net.cpp:157] Top shape: 1 2 1536 (3072)
I0206 07:36:30.133744  6300 net.cpp:165] Memory required for data: 721518240
I0206 07:36:30.133749  6300 layer_factory.hpp:77] Creating layer conv8_2_mbox_loc
I0206 07:36:30.133760  6300 net.cpp:100] Creating Layer conv8_2_mbox_loc
I0206 07:36:30.133764  6300 net.cpp:434] conv8_2_mbox_loc <- conv8_2_conv8_2_relu_0_split_1
I0206 07:36:30.133772  6300 net.cpp:408] conv8_2_mbox_loc -> conv8_2_mbox_loc
I0206 07:36:30.135082  6300 net.cpp:150] Setting up conv8_2_mbox_loc
I0206 07:36:30.135095  6300 net.cpp:157] Top shape: 1 24 4 4 (384)
I0206 07:36:30.135114  6300 net.cpp:165] Memory required for data: 721519776
I0206 07:36:30.135123  6300 layer_factory.hpp:77] Creating layer conv8_2_mbox_loc_perm
I0206 07:36:30.135133  6300 net.cpp:100] Creating Layer conv8_2_mbox_loc_perm
I0206 07:36:30.135156  6300 net.cpp:434] conv8_2_mbox_loc_perm <- conv8_2_mbox_loc
I0206 07:36:30.135164  6300 net.cpp:408] conv8_2_mbox_loc_perm -> conv8_2_mbox_loc_perm
I0206 07:36:30.135251  6300 net.cpp:150] Setting up conv8_2_mbox_loc_perm
I0206 07:36:30.135258  6300 net.cpp:157] Top shape: 1 4 4 24 (384)
I0206 07:36:30.135262  6300 net.cpp:165] Memory required for data: 721521312
I0206 07:36:30.135267  6300 layer_factory.hpp:77] Creating layer conv8_2_mbox_loc_flat
I0206 07:36:30.135274  6300 net.cpp:100] Creating Layer conv8_2_mbox_loc_flat
I0206 07:36:30.135280  6300 net.cpp:434] conv8_2_mbox_loc_flat <- conv8_2_mbox_loc_perm
I0206 07:36:30.135287  6300 net.cpp:408] conv8_2_mbox_loc_flat -> conv8_2_mbox_loc_flat
I0206 07:36:30.135311  6300 net.cpp:150] Setting up conv8_2_mbox_loc_flat
I0206 07:36:30.135318  6300 net.cpp:157] Top shape: 1 384 (384)
I0206 07:36:30.135321  6300 net.cpp:165] Memory required for data: 721522848
I0206 07:36:30.135325  6300 layer_factory.hpp:77] Creating layer conv8_2_mbox_conf
I0206 07:36:30.135335  6300 net.cpp:100] Creating Layer conv8_2_mbox_conf
I0206 07:36:30.135341  6300 net.cpp:434] conv8_2_mbox_conf <- conv8_2_conv8_2_relu_0_split_2
I0206 07:36:30.135349  6300 net.cpp:408] conv8_2_mbox_conf -> conv8_2_mbox_conf
I0206 07:36:30.135821  6300 net.cpp:150] Setting up conv8_2_mbox_conf
I0206 07:36:30.135828  6300 net.cpp:157] Top shape: 1 30 4 4 (480)
I0206 07:36:30.135833  6300 net.cpp:165] Memory required for data: 721524768
I0206 07:36:30.135840  6300 layer_factory.hpp:77] Creating layer conv8_2_mbox_conf_perm
I0206 07:36:30.135848  6300 net.cpp:100] Creating Layer conv8_2_mbox_conf_perm
I0206 07:36:30.135854  6300 net.cpp:434] conv8_2_mbox_conf_perm <- conv8_2_mbox_conf
I0206 07:36:30.135862  6300 net.cpp:408] conv8_2_mbox_conf_perm -> conv8_2_mbox_conf_perm
I0206 07:36:30.135942  6300 net.cpp:150] Setting up conv8_2_mbox_conf_perm
I0206 07:36:30.135949  6300 net.cpp:157] Top shape: 1 4 4 30 (480)
I0206 07:36:30.135953  6300 net.cpp:165] Memory required for data: 721526688
I0206 07:36:30.135957  6300 layer_factory.hpp:77] Creating layer conv8_2_mbox_conf_flat
I0206 07:36:30.135964  6300 net.cpp:100] Creating Layer conv8_2_mbox_conf_flat
I0206 07:36:30.135969  6300 net.cpp:434] conv8_2_mbox_conf_flat <- conv8_2_mbox_conf_perm
I0206 07:36:30.135977  6300 net.cpp:408] conv8_2_mbox_conf_flat -> conv8_2_mbox_conf_flat
I0206 07:36:30.135999  6300 net.cpp:150] Setting up conv8_2_mbox_conf_flat
I0206 07:36:30.136005  6300 net.cpp:157] Top shape: 1 480 (480)
I0206 07:36:30.136009  6300 net.cpp:165] Memory required for data: 721528608
I0206 07:36:30.136013  6300 layer_factory.hpp:77] Creating layer conv8_2_mbox_priorbox
I0206 07:36:30.136020  6300 net.cpp:100] Creating Layer conv8_2_mbox_priorbox
I0206 07:36:30.136026  6300 net.cpp:434] conv8_2_mbox_priorbox <- conv8_2_conv8_2_relu_0_split_3
I0206 07:36:30.136031  6300 net.cpp:434] conv8_2_mbox_priorbox <- data_data_0_split_5
I0206 07:36:30.136039  6300 net.cpp:408] conv8_2_mbox_priorbox -> conv8_2_mbox_priorbox
I0206 07:36:30.136065  6300 net.cpp:150] Setting up conv8_2_mbox_priorbox
I0206 07:36:30.136071  6300 net.cpp:157] Top shape: 1 2 384 (768)
I0206 07:36:30.136075  6300 net.cpp:165] Memory required for data: 721531680
I0206 07:36:30.136080  6300 layer_factory.hpp:77] Creating layer conv9_2_mbox_loc
I0206 07:36:30.136090  6300 net.cpp:100] Creating Layer conv9_2_mbox_loc
I0206 07:36:30.136093  6300 net.cpp:434] conv9_2_mbox_loc <- conv9_2_conv9_2_relu_0_split_1
I0206 07:36:30.136101  6300 net.cpp:408] conv9_2_mbox_loc -> conv9_2_mbox_loc
I0206 07:36:30.136428  6300 net.cpp:150] Setting up conv9_2_mbox_loc
I0206 07:36:30.136436  6300 net.cpp:157] Top shape: 1 16 2 2 (64)
I0206 07:36:30.136440  6300 net.cpp:165] Memory required for data: 721531936
I0206 07:36:30.136447  6300 layer_factory.hpp:77] Creating layer conv9_2_mbox_loc_perm
I0206 07:36:30.136464  6300 net.cpp:100] Creating Layer conv9_2_mbox_loc_perm
I0206 07:36:30.136471  6300 net.cpp:434] conv9_2_mbox_loc_perm <- conv9_2_mbox_loc
I0206 07:36:30.136478  6300 net.cpp:408] conv9_2_mbox_loc_perm -> conv9_2_mbox_loc_perm
I0206 07:36:30.136557  6300 net.cpp:150] Setting up conv9_2_mbox_loc_perm
I0206 07:36:30.136564  6300 net.cpp:157] Top shape: 1 2 2 16 (64)
I0206 07:36:30.136569  6300 net.cpp:165] Memory required for data: 721532192
I0206 07:36:30.136572  6300 layer_factory.hpp:77] Creating layer conv9_2_mbox_loc_flat
I0206 07:36:30.136580  6300 net.cpp:100] Creating Layer conv9_2_mbox_loc_flat
I0206 07:36:30.136586  6300 net.cpp:434] conv9_2_mbox_loc_flat <- conv9_2_mbox_loc_perm
I0206 07:36:30.136593  6300 net.cpp:408] conv9_2_mbox_loc_flat -> conv9_2_mbox_loc_flat
I0206 07:36:30.136616  6300 net.cpp:150] Setting up conv9_2_mbox_loc_flat
I0206 07:36:30.136622  6300 net.cpp:157] Top shape: 1 64 (64)
I0206 07:36:30.136626  6300 net.cpp:165] Memory required for data: 721532448
I0206 07:36:30.136631  6300 layer_factory.hpp:77] Creating layer conv9_2_mbox_conf
I0206 07:36:30.136639  6300 net.cpp:100] Creating Layer conv9_2_mbox_conf
I0206 07:36:30.136646  6300 net.cpp:434] conv9_2_mbox_conf <- conv9_2_conv9_2_relu_0_split_2
I0206 07:36:30.136653  6300 net.cpp:408] conv9_2_mbox_conf -> conv9_2_mbox_conf
I0206 07:36:30.137290  6300 net.cpp:150] Setting up conv9_2_mbox_conf
I0206 07:36:30.137300  6300 net.cpp:157] Top shape: 1 20 2 2 (80)
I0206 07:36:30.137303  6300 net.cpp:165] Memory required for data: 721532768
I0206 07:36:30.137310  6300 layer_factory.hpp:77] Creating layer conv9_2_mbox_conf_perm
I0206 07:36:30.137320  6300 net.cpp:100] Creating Layer conv9_2_mbox_conf_perm
I0206 07:36:30.137326  6300 net.cpp:434] conv9_2_mbox_conf_perm <- conv9_2_mbox_conf
I0206 07:36:30.137334  6300 net.cpp:408] conv9_2_mbox_conf_perm -> conv9_2_mbox_conf_perm
I0206 07:36:30.137414  6300 net.cpp:150] Setting up conv9_2_mbox_conf_perm
I0206 07:36:30.137421  6300 net.cpp:157] Top shape: 1 2 2 20 (80)
I0206 07:36:30.137425  6300 net.cpp:165] Memory required for data: 721533088
I0206 07:36:30.137429  6300 layer_factory.hpp:77] Creating layer conv9_2_mbox_conf_flat
I0206 07:36:30.137436  6300 net.cpp:100] Creating Layer conv9_2_mbox_conf_flat
I0206 07:36:30.137442  6300 net.cpp:434] conv9_2_mbox_conf_flat <- conv9_2_mbox_conf_perm
I0206 07:36:30.137449  6300 net.cpp:408] conv9_2_mbox_conf_flat -> conv9_2_mbox_conf_flat
I0206 07:36:30.137472  6300 net.cpp:150] Setting up conv9_2_mbox_conf_flat
I0206 07:36:30.137478  6300 net.cpp:157] Top shape: 1 80 (80)
I0206 07:36:30.137481  6300 net.cpp:165] Memory required for data: 721533408
I0206 07:36:30.137485  6300 layer_factory.hpp:77] Creating layer conv9_2_mbox_priorbox
I0206 07:36:30.137493  6300 net.cpp:100] Creating Layer conv9_2_mbox_priorbox
I0206 07:36:30.137498  6300 net.cpp:434] conv9_2_mbox_priorbox <- conv9_2_conv9_2_relu_0_split_3
I0206 07:36:30.137503  6300 net.cpp:434] conv9_2_mbox_priorbox <- data_data_0_split_6
I0206 07:36:30.137511  6300 net.cpp:408] conv9_2_mbox_priorbox -> conv9_2_mbox_priorbox
I0206 07:36:30.137537  6300 net.cpp:150] Setting up conv9_2_mbox_priorbox
I0206 07:36:30.137542  6300 net.cpp:157] Top shape: 1 2 64 (128)
I0206 07:36:30.137547  6300 net.cpp:165] Memory required for data: 721533920
I0206 07:36:30.137550  6300 layer_factory.hpp:77] Creating layer conv10_2_mbox_loc
I0206 07:36:30.137560  6300 net.cpp:100] Creating Layer conv10_2_mbox_loc
I0206 07:36:30.137565  6300 net.cpp:434] conv10_2_mbox_loc <- conv10_2_conv10_2_relu_0_split_0
I0206 07:36:30.137573  6300 net.cpp:408] conv10_2_mbox_loc -> conv10_2_mbox_loc
I0206 07:36:30.137899  6300 net.cpp:150] Setting up conv10_2_mbox_loc
I0206 07:36:30.137907  6300 net.cpp:157] Top shape: 1 16 1 1 (16)
I0206 07:36:30.137910  6300 net.cpp:165] Memory required for data: 721533984
I0206 07:36:30.137918  6300 layer_factory.hpp:77] Creating layer conv10_2_mbox_loc_perm
I0206 07:36:30.137925  6300 net.cpp:100] Creating Layer conv10_2_mbox_loc_perm
I0206 07:36:30.137930  6300 net.cpp:434] conv10_2_mbox_loc_perm <- conv10_2_mbox_loc
I0206 07:36:30.137948  6300 net.cpp:408] conv10_2_mbox_loc_perm -> conv10_2_mbox_loc_perm
I0206 07:36:30.138028  6300 net.cpp:150] Setting up conv10_2_mbox_loc_perm
I0206 07:36:30.138036  6300 net.cpp:157] Top shape: 1 1 1 16 (16)
I0206 07:36:30.138039  6300 net.cpp:165] Memory required for data: 721534048
I0206 07:36:30.138043  6300 layer_factory.hpp:77] Creating layer conv10_2_mbox_loc_flat
I0206 07:36:30.138051  6300 net.cpp:100] Creating Layer conv10_2_mbox_loc_flat
I0206 07:36:30.138056  6300 net.cpp:434] conv10_2_mbox_loc_flat <- conv10_2_mbox_loc_perm
I0206 07:36:30.138062  6300 net.cpp:408] conv10_2_mbox_loc_flat -> conv10_2_mbox_loc_flat
I0206 07:36:30.138087  6300 net.cpp:150] Setting up conv10_2_mbox_loc_flat
I0206 07:36:30.138092  6300 net.cpp:157] Top shape: 1 16 (16)
I0206 07:36:30.138095  6300 net.cpp:165] Memory required for data: 721534112
I0206 07:36:30.138099  6300 layer_factory.hpp:77] Creating layer conv10_2_mbox_conf
I0206 07:36:30.138108  6300 net.cpp:100] Creating Layer conv10_2_mbox_conf
I0206 07:36:30.138113  6300 net.cpp:434] conv10_2_mbox_conf <- conv10_2_conv10_2_relu_0_split_1
I0206 07:36:30.138121  6300 net.cpp:408] conv10_2_mbox_conf -> conv10_2_mbox_conf
I0206 07:36:30.138481  6300 net.cpp:150] Setting up conv10_2_mbox_conf
I0206 07:36:30.138489  6300 net.cpp:157] Top shape: 1 20 1 1 (20)
I0206 07:36:30.138492  6300 net.cpp:165] Memory required for data: 721534192
I0206 07:36:30.138499  6300 layer_factory.hpp:77] Creating layer conv10_2_mbox_conf_perm
I0206 07:36:30.138507  6300 net.cpp:100] Creating Layer conv10_2_mbox_conf_perm
I0206 07:36:30.138514  6300 net.cpp:434] conv10_2_mbox_conf_perm <- conv10_2_mbox_conf
I0206 07:36:30.138520  6300 net.cpp:408] conv10_2_mbox_conf_perm -> conv10_2_mbox_conf_perm
I0206 07:36:30.138602  6300 net.cpp:150] Setting up conv10_2_mbox_conf_perm
I0206 07:36:30.138608  6300 net.cpp:157] Top shape: 1 1 1 20 (20)
I0206 07:36:30.138612  6300 net.cpp:165] Memory required for data: 721534272
I0206 07:36:30.138617  6300 layer_factory.hpp:77] Creating layer conv10_2_mbox_conf_flat
I0206 07:36:30.138622  6300 net.cpp:100] Creating Layer conv10_2_mbox_conf_flat
I0206 07:36:30.138628  6300 net.cpp:434] conv10_2_mbox_conf_flat <- conv10_2_mbox_conf_perm
I0206 07:36:30.138634  6300 net.cpp:408] conv10_2_mbox_conf_flat -> conv10_2_mbox_conf_flat
I0206 07:36:30.138658  6300 net.cpp:150] Setting up conv10_2_mbox_conf_flat
I0206 07:36:30.138664  6300 net.cpp:157] Top shape: 1 20 (20)
I0206 07:36:30.138667  6300 net.cpp:165] Memory required for data: 721534352
I0206 07:36:30.138671  6300 layer_factory.hpp:77] Creating layer conv10_2_mbox_priorbox
I0206 07:36:30.138679  6300 net.cpp:100] Creating Layer conv10_2_mbox_priorbox
I0206 07:36:30.138684  6300 net.cpp:434] conv10_2_mbox_priorbox <- conv10_2_conv10_2_relu_0_split_2
I0206 07:36:30.138689  6300 net.cpp:434] conv10_2_mbox_priorbox <- data_data_0_split_7
I0206 07:36:30.138697  6300 net.cpp:408] conv10_2_mbox_priorbox -> conv10_2_mbox_priorbox
I0206 07:36:30.138722  6300 net.cpp:150] Setting up conv10_2_mbox_priorbox
I0206 07:36:30.138728  6300 net.cpp:157] Top shape: 1 2 16 (32)
I0206 07:36:30.138732  6300 net.cpp:165] Memory required for data: 721534480
I0206 07:36:30.138736  6300 layer_factory.hpp:77] Creating layer mbox_loc
I0206 07:36:30.138744  6300 net.cpp:100] Creating Layer mbox_loc
I0206 07:36:30.138751  6300 net.cpp:434] mbox_loc <- conv4_3_norm_mbox_loc_flat
I0206 07:36:30.138757  6300 net.cpp:434] mbox_loc <- fc7_mbox_loc_flat
I0206 07:36:30.138764  6300 net.cpp:434] mbox_loc <- conv6_2_mbox_loc_flat
I0206 07:36:30.138772  6300 net.cpp:434] mbox_loc <- conv7_2_mbox_loc_flat
I0206 07:36:30.138777  6300 net.cpp:434] mbox_loc <- conv8_2_mbox_loc_flat
I0206 07:36:30.138782  6300 net.cpp:434] mbox_loc <- conv9_2_mbox_loc_flat
I0206 07:36:30.138788  6300 net.cpp:434] mbox_loc <- conv10_2_mbox_loc_flat
I0206 07:36:30.138794  6300 net.cpp:408] mbox_loc -> mbox_loc
I0206 07:36:30.138821  6300 net.cpp:150] Setting up mbox_loc
I0206 07:36:30.138828  6300 net.cpp:157] Top shape: 1 98256 (98256)
I0206 07:36:30.138840  6300 net.cpp:165] Memory required for data: 721927504
I0206 07:36:30.138844  6300 layer_factory.hpp:77] Creating layer mbox_conf
I0206 07:36:30.138852  6300 net.cpp:100] Creating Layer mbox_conf
I0206 07:36:30.138857  6300 net.cpp:434] mbox_conf <- conv4_3_norm_mbox_conf_flat
I0206 07:36:30.138864  6300 net.cpp:434] mbox_conf <- fc7_mbox_conf_flat
I0206 07:36:30.138871  6300 net.cpp:434] mbox_conf <- conv6_2_mbox_conf_flat
I0206 07:36:30.138877  6300 net.cpp:434] mbox_conf <- conv7_2_mbox_conf_flat
I0206 07:36:30.138883  6300 net.cpp:434] mbox_conf <- conv8_2_mbox_conf_flat
I0206 07:36:30.138890  6300 net.cpp:434] mbox_conf <- conv9_2_mbox_conf_flat
I0206 07:36:30.138895  6300 net.cpp:434] mbox_conf <- conv10_2_mbox_conf_flat
I0206 07:36:30.138901  6300 net.cpp:408] mbox_conf -> mbox_conf
I0206 07:36:30.138927  6300 net.cpp:150] Setting up mbox_conf
I0206 07:36:30.138933  6300 net.cpp:157] Top shape: 1 122820 (122820)
I0206 07:36:30.138937  6300 net.cpp:165] Memory required for data: 722418784
I0206 07:36:30.138942  6300 layer_factory.hpp:77] Creating layer mbox_priorbox
I0206 07:36:30.138948  6300 net.cpp:100] Creating Layer mbox_priorbox
I0206 07:36:30.138954  6300 net.cpp:434] mbox_priorbox <- conv4_3_norm_mbox_priorbox
I0206 07:36:30.138962  6300 net.cpp:434] mbox_priorbox <- fc7_mbox_priorbox
I0206 07:36:30.138967  6300 net.cpp:434] mbox_priorbox <- conv6_2_mbox_priorbox
I0206 07:36:30.138973  6300 net.cpp:434] mbox_priorbox <- conv7_2_mbox_priorbox
I0206 07:36:30.138979  6300 net.cpp:434] mbox_priorbox <- conv8_2_mbox_priorbox
I0206 07:36:30.138985  6300 net.cpp:434] mbox_priorbox <- conv9_2_mbox_priorbox
I0206 07:36:30.138991  6300 net.cpp:434] mbox_priorbox <- conv10_2_mbox_priorbox
I0206 07:36:30.138998  6300 net.cpp:408] mbox_priorbox -> mbox_priorbox
I0206 07:36:30.139022  6300 net.cpp:150] Setting up mbox_priorbox
I0206 07:36:30.139029  6300 net.cpp:157] Top shape: 1 2 98256 (196512)
I0206 07:36:30.139032  6300 net.cpp:165] Memory required for data: 723204832
I0206 07:36:30.139036  6300 layer_factory.hpp:77] Creating layer mbox_conf_reshape
I0206 07:36:30.139045  6300 net.cpp:100] Creating Layer mbox_conf_reshape
I0206 07:36:30.139050  6300 net.cpp:434] mbox_conf_reshape <- mbox_conf
I0206 07:36:30.139056  6300 net.cpp:408] mbox_conf_reshape -> mbox_conf_reshape
I0206 07:36:30.139087  6300 net.cpp:150] Setting up mbox_conf_reshape
I0206 07:36:30.139093  6300 net.cpp:157] Top shape: 1 24564 5 (122820)
I0206 07:36:30.139097  6300 net.cpp:165] Memory required for data: 723696112
I0206 07:36:30.139101  6300 layer_factory.hpp:77] Creating layer mbox_conf_softmax
I0206 07:36:30.139108  6300 net.cpp:100] Creating Layer mbox_conf_softmax
I0206 07:36:30.139114  6300 net.cpp:434] mbox_conf_softmax <- mbox_conf_reshape
I0206 07:36:30.139120  6300 net.cpp:408] mbox_conf_softmax -> mbox_conf_softmax
I0206 07:36:30.139192  6300 net.cpp:150] Setting up mbox_conf_softmax
I0206 07:36:30.139200  6300 net.cpp:157] Top shape: 1 24564 5 (122820)
I0206 07:36:30.139204  6300 net.cpp:165] Memory required for data: 724187392
I0206 07:36:30.139209  6300 layer_factory.hpp:77] Creating layer mbox_conf_flatten
I0206 07:36:30.139214  6300 net.cpp:100] Creating Layer mbox_conf_flatten
I0206 07:36:30.139219  6300 net.cpp:434] mbox_conf_flatten <- mbox_conf_softmax
I0206 07:36:30.139226  6300 net.cpp:408] mbox_conf_flatten -> mbox_conf_flatten
I0206 07:36:30.139250  6300 net.cpp:150] Setting up mbox_conf_flatten
I0206 07:36:30.139256  6300 net.cpp:157] Top shape: 1 122820 (122820)
I0206 07:36:30.139261  6300 net.cpp:165] Memory required for data: 724678672
I0206 07:36:30.139264  6300 layer_factory.hpp:77] Creating layer detection_out
I0206 07:36:30.139276  6300 net.cpp:100] Creating Layer detection_out
I0206 07:36:30.139281  6300 net.cpp:434] detection_out <- mbox_loc
I0206 07:36:30.139286  6300 net.cpp:434] detection_out <- mbox_conf_flatten
I0206 07:36:30.139292  6300 net.cpp:434] detection_out <- mbox_priorbox
I0206 07:36:30.139298  6300 net.cpp:408] detection_out -> detection_out
I0206 07:36:30.139364  6300 net.cpp:150] Setting up detection_out
I0206 07:36:30.139370  6300 net.cpp:157] Top shape: 1 1 1 7 (7)
I0206 07:36:30.139374  6300 net.cpp:165] Memory required for data: 724678700
I0206 07:36:30.139379  6300 layer_factory.hpp:77] Creating layer detection_eval
I0206 07:36:30.139386  6300 net.cpp:100] Creating Layer detection_eval
I0206 07:36:30.139391  6300 net.cpp:434] detection_eval <- detection_out
I0206 07:36:30.139397  6300 net.cpp:434] detection_eval <- label
I0206 07:36:30.139405  6300 net.cpp:408] detection_eval -> detection_eval
I0206 07:36:30.139443  6300 net.cpp:150] Setting up detection_eval
I0206 07:36:30.139449  6300 net.cpp:157] Top shape: 1 1 5 5 (25)
I0206 07:36:30.139453  6300 net.cpp:165] Memory required for data: 724678800
I0206 07:36:30.139458  6300 net.cpp:228] detection_eval does not need backward computation.
I0206 07:36:30.139464  6300 net.cpp:228] detection_out does not need backward computation.
I0206 07:36:30.139470  6300 net.cpp:228] mbox_conf_flatten does not need backward computation.
I0206 07:36:30.139474  6300 net.cpp:228] mbox_conf_softmax does not need backward computation.
…
